models/Akivili.pth (torch, 979725 bytes, 8 tensors)

layers.1.weight f4 [256, 784]
0	0xbce103aa	-0.027467567
1	0xbbdd29ff	-0.006749391
2	0xbcd3648f	-0.025804786
3	0xbd0ee2bd	-0.034884203
4	0xbc0cba5b	-0.0085893525
5	0x3b5c8853	0.0033650592
6	0xbc2de22d	-0.010613007
7	0xba234c40	-0.00062293187
8	0xbcecbfaf	-0.028899996
9	0xbc97e7f8	-0.018543229
10	0xbccacf68	-0.024757102
11	0xbcd5f42c	-0.026117407
12	0x3cd43cb8	0.02590786
13	0xbce23237	-0.027611835
14	0x3c83e088	0.016098276
15	0xbd106d16	-0.035260282
16	0x3c5ec61f	0.01359704
17	0x3c4a7741	0.012357534
18	0xbcdba7e7	-0.02681346
19	0xbca42c73	-0.020040726
20	0xbc8764c8	-0.016527548
21	0x3ccbbc82	0.024870161
22	0xbc96b92a	-0.01839884
23	0x3c3440f7	0.011001817
24	0xbd25993f	-0.04042935
25	0xba0c8cc9	-0.0005361555
26	0xba926a39	-0.0011170573
27	0xbd25f0cc	-0.040512845
28	0xbcb0aa62	-0.02156562
29	0xbbd2adca	-0.0064294087
30	0xbd2c814b	-0.04211549
31	0xbcf76927	-0.030201508
32	0xbc493673	-0.012281048
33	0xbd24acf0	-0.04020399
34	0x3c967ca5	0.018369982
35	0xbd1913e6	-0.037372492
36	0xbd121853	-0.03566773
37	0xbc4eb88d	-0.0126172425
38	0x3cf1987c	0.029491656
39	0x3b9985c6	0.0046851365
40	0xbcd48877	-0.025943978
41	0xbb7b6259	-0.003835818
42	0xbc632e0e	-0.013865961
43	0xbce516b1	-0.027964922
44	0xbd37a76d	-0.044837404
45	0x3c464a68	0.012102701
46	0x3b9b4326	0.0047382293
47	0xbc196d5e	-0.009364454
48	0xbd14afca	-0.036300458
49	0xbcd76436	-0.026292901
50	0x3b292c2e	0.0025813687
51	0xb98df963	-0.00027079423
52	0x3cb1bc1f	0.021696148
53	0x3ca25d8e	0.019820001
54	0x3c891f3e	0.01673853
55	0x3ccf44f3	0.025301432
56	0xbb51ab53	-0.0031992986
57	0x3caad4ac	0.020853363
58	0xbc19f0d1	-0.009395794
59	0xba9ba887	-0.0011875787
60	0x3c467e4f	0.012115075
61	0xbcebeec9	-0.028800385
62	0xbcd2d32e	-0.025735464
63	0xbcfc625d	-0.030808622
64	0x3b84e267	0.0040553096
65	0x3a15dae8	0.00057165185
66	0x3cd09c0e	0.025465038
67	0xbd0c150a	-0.034199752
68	0xbcde7e24	-0.027159758
69	0x3cf160e0	0.029465139
70	0xbc95af25	-0.018271992
71	0x3c6bbd53	0.0143884
72	0xbb8444b7	-0.0040365118
73	0x3bed9005	0.0072498345
74	0xbc89cb28	-0.016820505
75	0xbbf0046b	-0.0073247454
76	0xbc2273df	-0.009915321
77	0xbd160e22	-0.03663457
78	0x3c089d11	0.008338229
79	0x3c16c5b0	0.009202406
80	0x3bb2654f	0.005444206
81	0xbc2e2fbf	-0.010631501
82	0xbcc6bf37	-0.0242611
83	0xbd26d300	-0.04072857
84	0x3a92e365	0.0011206685
85	0x3ce3df81	0.027816536
86	0xbcd09d4f	-0.025465636
87	0x3ccafaac	0.024777733
88	0x3b9a5b69	0.004710604
89	0x3cb0cf19	0.021583127
90	0xbcb83866	-0.02248783
91	0xbbe76ffa	-0.007062909
92	0x3cdf45ca	0.027254958
93	0xba984638	-0.0011617607
94	0x3c4bb6d6	0.012433728
95	0xbc9391c5	-0.018013844
96	0x3d83c66e	0.06434332
97	0x3ba1eade	0.0049413284
98	0x3d20bef1	0.039244596
99	0x3d300614	0.042974547
100	0x3c22c768	0.0099352375
101	0x3b19d2c2	0.0023471569
102	0x3c832876	0.016010504
103	0x3bfb82fb	0.007675526
104	0x3ca60447	0.020265711
105	0x3d2224d1	0.039585892
106	0x3cd04959	0.0254256
107	0x3ccb4122	0.024811331
108	0x3c4b863a	0.012422139
109	0xbcbb1a7c	-0.022839777
110	0xbc616262	-0.013756366
111	0xbcf48294	-0.02984742
112	0xbb1f815d	-0.002433858
113	0xbab9ab83	-0.0014165494
114	0x3c9f921c	0.01947885
115	0xbc817d58	-0.015806839
116	0x3c8fe0b6	0.017563205
117	0x3cb8848f	0.022524146
118	0xbc9f5000	-0.019447327
119	0x3d19b05b	0.0375217
120	0x3d619f39	0.055083487
121	0x3c022f46	0.007945841
122	0xbb210392	-0.0024568778
123	0x3d2a9875	0.0416493
124	0x3d393d58	0.045224518
125	0x3d2fec5e	0.042950027
126	0x3bda78ae	0.006667218
127	0x3d81e1ec	0.06341919
128	0x3d6c0872	0.05762524
129	0xbb120f2b	-0.0022286873
130	0x3d3202f5	0.04345985
131	0xbc18f722	-0.009336265
132	0xbb4048ae	-0.0029340195
133	0xbcf207e1	-0.029544773
134	0x3ca97d8b	0.020689746
135	0xbccda9bf	-0.025105355
136	0x3c2fb194	0.01072349
137	0x3c1f14b5	0.009709527
138	0x3c13a573	0.009011614
139	0xb7ea8371	-2.7956181e-05
140	0x3c421dce	0.011847926
141	0xbc2d9ded	-0.0105967345
142	0x3c554467	0.013016797
143	0x3c9cea28	0.019154623
144	0xbcdce8e2	-0.026966516
145	0x3c2794b1	0.010228322
146	0xbc269d61	-0.010169358
147	0x3cbbe822	0.022937838
148	0xbaf05518	-0.0018335907
149	0xbc85d2fa	-0.016335953
150	0xbc38bfd5	-0.011276205
151	0xbbedbb1d	-0.0072549717
152	0x3bcbfd34	0.0062252525
153	0x3b55a690	0.00326005
154	0x3b88f533	0.0041796206
155	0x3cf129de	0.02943891
156	0x3c4de652	0.01256712
157	0x3cc79e71	0.024367543
158	0x3c861ed9	0.016372131
159	0x3d5c172c	0.053733036
160	0x3ce6ff9c	0.028198056
161	0x3c8913c9	0.016733067
162	0xbd0941d9	-0.033510063
163	0x3c13c6c3	0.009019556
164	0x3cf6ed76	0.030142527
165	0xbbc936ab	-0.00614055
166	0x3c0b31af	0.008495732
167	0xbcf9c8f0	-0.030491322
168	0xbc89cefa	-0.016822327
169	0x3adff55b	0.0017086671
170	0xbb5fb92f	-0.0034137478
171	0xbd107198	-0.03526458
172	0xbb632812	-0.0034661335
173	0x3c4d488b	0.012529503
174	0xbbb0a25e	-0.0053904494
175	0xbc27c0ee	-0.010238869
176	0xbd012155	-0.03152593
177	0x3c80dda4	0.015730686
178	0xbbbecf2c	-0.0058230367
179	0xbc61a41b	-0.013772036
180	0x3a92c5c7	0.0011197858
181	0x39c3cdd0	0.0003734664
182	0xbc8a7f1a	-0.01690631
183	0x3b8af3a0	0.004240468
184	0x3c6f890d	0.014620078
185	0xbc173de1	-0.009231062
186	0xbcc337ce	-0.02383032
187	0xbb5fa44e	-0.0034125033
188	0xbd09b8f2	-0.033623643
189	0xbd05a9a7	-0.032632496
190	0xbca77714	-0.020442523
191	0x3c5b5c84	0.013388757
192	0x3c4a64ef	0.012353166
193	0xbd20ee9a	-0.03929005
194	0xbbc6e3a8	-0.006069619
195	0x3bac252e	0.0052534556
196	0xbbb6d7be	-0.0055799177
197	0xbc9c3598	-0.019068524
198	0xbd170573	-0.03687043
199	0x3cf227ef	0.029560057
200	0xb9a2cd7f	-0.00031052154
201	0x3d3bfcb4	0.045895293
202	0x3cb13c99	0.02163534
203	0xbc10c649	-0.008836337
204	0x3c7dcf09	0.015491256
205	0xbcb70fc2	-0.022346381
206	0xbc7b5d04	-0.015342001
207	0x3c8ec5d7	0.017428322
208	0xbc97b277	-0.018517716
209	0x3c9c94ae	0.019113865
210	0x3d1861c2	0.037202604
211	0xbba8f8e2	-0.0051566223
212	0xbc8cab14	-0.01717142
213	0xbbc3c8ce	-0.0059748655
214	0xbacd5a06	-0.0015667088
215	0x3ca47466	0.020075034
216	0x3b836707	0.0040100846
217	0xbca098df	-0.019604145
218	0xbd40d1b3	-0.047074985
219	0xbcbe63c0	-0.023240924
220	0xbcaebd9c	-0.021330647
221	0xbd28f47e	-0.04124879
222	0x3cc50b23	0.024053162
223	0xbbe7f09c	-0.0070782434
224	0xb9f824be	-0.0004732962
225	0xbb4a3000	-0.0030851364
226	0x3bfe5419	0.00776149
227	0xbceab442	-0.028650407
228	0x3bf8797a	0.0075828405
229	0x3c5a946e	0.013341052
230	0xbc262d4b	-0.010142635
231	0xbc966148	-0.018356934
232	0xbbc8d7bd	-0.0061292336
233	0xbd0505d9	-0.03247628
234	0x3b8d07d9	0.004303914
235	0xbc85147a	-0.016245116
236	0x3c74d484	0.014943246
237	0xbaf61fa3	-0.0018777739
238	0xbcc448be	-0.023960467
239	0x3b5b47a1	0.0033459442
240	0x39d169fe	0.00039942557
241	0xbc2dc180	-0.010605216
242	0x3c9ff2d7	0.019524975
243	0x3c00c829	0.007860222
244	0x3c2e665f	0.010644524
245	0xbd133434	-0.035938457
246	0xbc9f2967	-0.019428922
247	0xbd2d3df6	-0.04229542
248	0x3bb06c96	0.005384038
249	0xbc48eebd	-0.012263951
250	0x3c7ba13f	0.015358268
251	0xbc05dad4	-0.0081698485
252	0x3bf6dab6	0.0075333966
253	0xbbc2c5f3	-0.0059440075
254	0x3c399c25	0.011328732
255	0xbcd5c302	-0.026093964

layers.1.bias f4 [256]
0	0xbc99cf2d	-0.018775547
1	0x3b85d4fe	0.0040842285
2	0x3ce4450d	0.027864957
3	0x3c2e3ab5	0.010634114
4	0xbc464d22	-0.012103351
5	0xb98968ad	-0.00026208666
6	0xbb976257	-0.0046198773
7	0x3d32bc49	0.043636594
8	0x3d15b5f9	0.036550496
9	0xbcfe510a	-0.031044502
10	0xbc8dba9a	-0.017300893
11	0x3c6e4350	0.014542416
12	0x3d2306e0	0.03980148
13	0xbbd3015c	-0.006439371
14	0x3cdf8748	0.027286187
15	0xbc85ebb9	-0.016347753
16	0x3c603aa1	0.013685853
17	0x3d21f12f	0.03953665
18	0xbb66a000	-0.0035190582
19	0x3c5ac403	0.013352397
20	0xbc0dee40	-0.00866276
21	0x3bef0597	0.0072943675
22	0xbcc5f686	-0.024165403
23	0x3c361fed	0.01111601
24	0x3b72ba3d	0.0037037276
25	0x3a4e4a4a	0.00078693463
26	0xbc8b311a	-0.016991187
27	0x3c83fa5c	0.016110592
28	0xbcfcb56c	-0.030848227
29	0xbce33c43	-0.027738696
30	0xbd13729f	-0.035997983
31	0xbbcedec8	-0.0063131787
32	0xbb282537	-0.0025656947
33	0x3c0380fd	0.008026359
34	0x3c1ff793	0.009763616
35	0x3ca3cdd6	0.019995611
36	0xbb985b9d	-0.004649593
37	0xbccee6df	-0.025256572
38	0xbb88738c	-0.004164165
39	0xbca24699	-0.019809054
40	0xbcbc97dc	-0.023021631
41	0xbbd90984	-0.006623449
42	0x3c486ced	0.012233001
43	0x3ce92ea4	0.028464623
44	0x3c8f4f6b	0.017493924
45	0xbcb36732	-0.021899793
46	0x3cad19f2	0.021130536
47	0xbcf30260	-0.029664218
48	0x3c8da9d2	0.01729289
49	0x3b61524a	0.0034381323
50	0x3c6018fd	0.013677833
51	0xbb935b41	-0.0044969623
52	0x3c8a6185	0.016892204
53	0x3cc1e8da	0.023670603
54	0xbc35a453	-0.011086541
55	0xbc16f00b	-0.009212504
56	0x3d0a8235	0.03381558
57	0xbcb4aadc	-0.022054128
58	0x3c6a6a78	0.014307611
59	0x3c4696cf	0.0121209165
60	0xbcc7b57a	-0.024378527
61	0x3bed9902	0.007250906
62	0xbc8fd966	-0.017559718
63	0xbc2927c8	-0.010324426
64	0xbd1cf625	-0.03832068
65	0x3c70fc29	0.014708557
66	0xbbcbb71a	-0.0062168958
67	0x3c8962e2	0.016770784
68	0xbc842838	-0.016132459
69	0xbca7bdd5	-0.020476261
70	0xbcf9fba2	-0.030515496
71	0xbc8a8068	-0.016906932
72	0x3c8ff8b7	0.017574651
73	0x3d117d60	0.035519958
74	0xbcd08709	-0.025455015
75	0xbce5b214	-0.028039016
76	0x3b58dfdb	0.0033092413
77	0x3c9de047	0.019271983
78	0xbc4887ff	-0.012239455
79	0x3c55f75f	0.013059466
80	0x3c8b68dd	0.017017776
81	0xbce4598b	-0.027874729
82	0xbca7bc2d	-0.020475471
83	0x3c6cc450	0.014451101
84	0x3c0c08f1	0.008547054
85	0xbcb37e9e	-0.021910962
86	0xbc6ee324	-0.014580522
87	0xbcdada38	-0.026715383
88	0xbc88051a	-0.016603995
89	0x3cf441a7	0.029816462
90	0xbce181e0	-0.02752775
91	0x3c90e567	0.017687513
92	0x3cd020f1	0.025406333
93	0xbd07d425	-0.0331613
94	0x3c7228dc	0.014780249
95	0xbb8b8fed	-0.0042591006
96	0xbcd43504	-0.025904186
97	0xbca71356	-0.020394962
98	0x3d22a9cb	0.03971271
99	0x3c84a8e9	0.016193824
100	0x3be4b022	0.0069790045
101	0xbcb6e8e9	-0.022327857
102	0x3a1e81b8	0.0006046551
103	0xbcb26de6	-0.02178092
104	0x3cff503b	0.031166187
105	0x3cd44dd7	0.025916023
106	0x3c97c820	0.018528044
107	0xbbb46fe2	-0.0055065015
108	0x3ce8ff2f	0.028441994
109	0x3c323e2a	0.010879079
110	0xbbe08563	-0.0068518384
111	0xbd14e7eb	-0.036353987
112	0x3ca693c0	0.020334125
113	0x3ca023ac	0.01954826
114	0xbcde9154	-0.027168907
115	0x3cb1757a	0.021662463
116	0xbc3fb013	-0.011699694
117	0x3bfed110	0.007776387
118	0x3c84fc9d	0.016233737
119	0x3cc15870	0.02360174
120	0x38a5fcb7	7.914885e-05
121	0xbcae7662	-0.021296684
122	0x3c419950	0.011816338
123	0xbcbe0a6c	-0.023198329
124	0xbc909fc3	-0.017654305
125	0x3c92c03f	0.017913936
126	0x3c84248e	0.016130712
127	0x3cd319a7	0.025769068
128	0x3cbf8c6a	0.023382384
129	0xbc6bfb4c	-0.014403176
130	0xbc2a719a	-0.010403061
131	0x3ba2e2f6	0.0049709035
132	0xbcc2259f	-0.02369958
133	0xbc8e5ddc	-0.01737874
134	0x3bdb82d2	0.0066989446
135	0xbd09cbff	-0.03364181
136	0xbd1930be	-0.0374
137	0x3cc126b0	0.023578018
138	0x3c834a12	0.01602653
139	0xbc83a063	-0.01606769
140	0x3cca47fa	0.024692524
141	0xbbbd2971	-0.0057727625
142	0x3d03daa0	0.03219092
143	0x3ca52784	0.020160444
144	0xbcc4d8c9	-0.024029152
145	0x3b67c87c	0.00353673
146	0x3c45f117	0.012081406
147	0x3c69ed3f	0.014277755
148	0x3d194ecf	0.037428673
149	0x3c8d809e	0.017273244
150	0x3cda58ab	0.026653608
151	0x3b58fe8d	0.0033110708
152	0x3c8cec4e	0.017202523
153	0x3bb224da	0.005436522
154	0x3a2be7b1	0.0006557657
155	0x3ca56250	0.02018848
156	0x3c9c2663	0.019061273
157	0x3d2703c6	0.040775083
158	0x3b8e287b	0.0043383217
159	0xba9b3f5b	-0.0011844443
160	0xbd087346	-0.03331306
161	0x3be9018c	0.00711078
162	0xbcd8099d	-0.026371771
163	0x3a98f42f	0.0011669452
164	0x3c976ca3	0.01848442
165	0x3c492a67	0.012278176
166	0xbc770451	-0.015076713
167	0xbcd01f3b	-0.025405517
168	0x3c82bb97	0.01595859
169	0x3c99860b	0.018740674
170	0xbcb3090f	-0.021854905
171	0x3d0e5f1e	0.03475868
172	0xbcc7d9c7	-0.024395837
173	0xbb9edaf7	-0.00484788
174	0xba4e871b	-0.00078784087
175	0x3ce12164	0.027481742
176	0x3c8ace80	0.01694417
177	0x39082719	0.00012984536
178	0x3d00a41a	0.0314065
179	0x3c968d6f	0.018377988
180	0x3d12edd7	0.035871353
181	0xbc82f51a	-0.015986014
182	0x3c9865b0	0.018603176
183	0xbcafc40d	-0.021455789
184	0x3c377d7a	0.01119935
185	0x3cd103ed	0.025514567
186	0x3c98276d	0.018573487
187	0xbc7684cd	-0.015046311
188	0x3d1573fb	0.03648756
189	0xbd13fc72	-0.036129422
190	0x3cbdbaeb	0.023160418
191	0x3bffdb37	0.007808115
192	0xbc02a109	-0.007972964
193	0xbcc8bfee	-0.024505582
194	0xbc4f3a87	-0.012648231
195	0xbab5c721	-0.0013868549
196	0x3d0c4de9	0.03425399
197	0x3ccbd6b6	0.024882656
198	0x3c92f229	0.017937737
199	0x3994723d	0.00028313874
200	0x3cfeff6a	0.03112765
201	0x3a8b5f89	0.001063333
202	0x3cdfa070	0.027298182
203	0xbc676c84	-0.014124993
204	0xbd02d41a	-0.031940557
205	0x3ce6cadc	0.028172903
206	0x3c99302c	0.018699728
207	0xbbace1c0	-0.005275935
208	0x39d81b91	0.0004121927
209	0xbb97bca5	-0.0046306425
210	0x3cfe651f	0.031054078
211	0xb80f66d1	-3.4189612e-05
212	0x3d09c2d6	0.033633076
213	0x3cc08c79	0.023504483
214	0xbd0d2a4b	-0.03446416
215	0xbce59d7c	-0.028029196
216	0xbcb87a0a	-0.02251913
217	0x3cf4716b	0.029839238
218	0x3ce186ec	0.027530156
219	0x3b03b66a	0.002009774
220	0xbbf20eef	-0.007387034
221	0x3caf4d4a	0.021399159
222	0x3c3c1063	0.011478516
223	0xbc285ffa	-0.010276789
224	0xbbf2c630	-0.0074088797
225	0xbb7920db	-0.0038013968
226	0xbc270da4	-0.010196123
227	0x3cfaf574	0.03063462
228	0xbc842f23	-0.016135758
229	0x3c1dec3d	0.009638843
230	0x3bf2b220	0.007406488
231	0x3c886593	0.016649997
232	0x3d3242a4	0.043520585
233	0x3ccb54a6	0.024820637
234	0x3cc8edfc	0.024527542
235	0x3d0d0194	0.034425333
236	0xbcf88a6f	-0.030339448
237	0xbc248e21	-0.010043652
238	0xbd01c7d3	-0.031684708
239	0xbccc7fed	-0.024963344
240	0x3c81a228	0.015824392
241	0xbbf7d6b5	-0.007563437
242	0x3c2f09db	0.010683502
243	0x3c5c1243	0.013432088
244	0x3d051d23	0.03249849
245	0xbca5736b	-0.020196637
246	0x3d060b81	0.032725815
247	0xb8815bc7	-6.168294e-05
248	0xbc9a255c	-0.018816642
249	0x3c7c628d	0.015404356
250	0x3d4ddc27	0.05025878
251	0xbc2e36c5	-0.010633175
252	0xbc73e136	-0.014885237
253	0x3c68d0d3	0.014209944
254	0x3c588616	0.013215562
255	0x3d44f704	0.048087135

layers.3.weight f4 [128, 256]
0	0xbc42e44c	-0.0118952505
1	0xbca5473e	-0.020175572
2	0x3c27b33b	0.010235603
3	0x3dc0d583	0.09415724
4	0xbd7afa9b	-0.061274152
5	0x3d52a81a	0.051429845
6	0xbd033b4b	-0.032038968
7	0xbd06305d	-0.032760967
8	0xbcb13059	-0.0216295
9	0x3cf10aac	0.029424034
10	0xbcc9b1d6	-0.024620932
11	0xbd8ab9da	-0.067737296
12	0x3ca1e10a	0.019760627
13	0x3c94b598	0.018152997
14	0x3d3bdaa2	0.0458628
15	0xbcbd73f8	-0.023126587
16	0xbd5ec528	-0.05438724
17	0xbbd940f1	-0.006630056
18	0xbcf50c83	-0.029913193
19	0xbcd925fe	-0.026507374
20	0x3cee2676	0.029071074
21	0xbc78f72e	-0.015195651
22	0x3d220ee2	0.039564975
23	0xbd197909	-0.037468944
24	0x3d206e1e	0.039167516
25	0x3d570824	0.052497998
26	0x3d0cfc44	0.034420267
27	0xbcaf919f	-0.021431742
28	0xbd054c73	-0.03254361
29	0x3c6fae76	0.014628997
30	0x3c923a30	0.017850012
31	0xbd577360	-0.052600265
32	0x3d63d6b8	0.055624694
33	0xbdaf0fa3	-0.08547904
34	0xbdb6b258	-0.08920735
35	0x3b9f524a	0.0048621045
36	0xbcc11d50	-0.023573548
37	0xbd210f0a	-0.039320983
38	0x3d9e043a	0.0771565
39	0x3d929dda	0.07159014
40	0xbc646835	-0.0139408605
41	0x3d61b682	0.055105694
42	0xbd838b2e	-0.06423031
43	0x3c326d6b	0.010890345
44	0x3d79fe97	0.06103381
45	0xbc4b3121	-0.01240185
46	0xbc5be89f	-0.01342216
47	0xbc29ea8a	-0.01037086
48	0x3d170e41	0.036878828
49	0x3c2c6b6b	0.010523657
50	0x3c828693	0.01593331
51	0xbd24a5f1	-0.040197317
52	0x3dcf30bd	0.10116718
53	0xbd4543d7	-0.0481604
54	0xbd1283e0	-0.035770297
55	0x3d1f02f1	0.038821165
56	0x3d41465d	0.047186244
57	0xbce4f58c	-0.027949117
58	0x3d3b476e	0.045722418
59	0x3d0f5e1a	0.03500185
60	0x3d03cb6f	0.03217643
61	0x3bed651a	0.0072447183
62	0xbbc27dbf	-0.0059354003
63	0xbdaa430e	-0.08313571
64	0xbd685ba6	-0.056728028
65	0x3c6363ce	0.013878776
66	0x3d29fc97	0.041500654
67	0x3daf8a02	0.08571245
68	0xbd098c31	-0.033580963
69	0xbd3b6ddd	-0.04575907
70	0x3d578f3b	0.05262683
71	0x3d8d6fa6	0.06906061
72	0xbc1feaff	-0.009760617
73	0x3ca4e821	0.020130219
74	0xbcf66360	-0.030076683
75	0xbd3deb74	-0.046367124
76	0xbd4cd3a7	-0.050006535
77	0x3d400a93	0.046885084
78	0xbd8f3aac	-0.06993613
79	0xbdba130c	-0.09085664
80	0x3d7825bd	0.060582865
81	0x3af8d52a	0.0018984426
82	0x3d6015d6	0.054708324
83	0x3cdb6bc9	0.026784794
84	0x3ca900e7	0.020630313
85	0x3bc33bf3	0.0059580742
86	0xbb864d05	-0.004098537
87	0x3c3eb30d	0.011639369
88	0x3cc2060f	0.02368453
89	0x3d0b45df	0.03400218
90	0xbd90e889	-0.070756026
91	0xbd1d6003	-0.038421642
92	0x3db1a981	0.086749084
93	0x3b6f2e13	0.0036495968
94	0x3d55dceb	0.052212637
95	0x3d5657ed	0.052329946
96	0x39572946	0.00020519373
97	0x3da57e56	0.08080737
98	0x3c0683d7	0.008210144
99	0x3cf6ff6b	0.03015109
100	0xbce060a0	-0.027389824
101	0x3c93714d	0.017998362
102	0xbcb799de	-0.022412237
103	0xbc47df21	-0.012199194
104	0xbc725f82	-0.014793279
105	0x3d97b6b4	0.07407895
106	0x3cbae16b	0.022812566
107	0x3ca5f5a6	0.020258736
108	0xbc1eeb0e	-0.009699596
109	0x3decbcf9	0.11559481
110	0xbcbce18e	-0.023056772
111	0xbd391fad	-0.045196224
112	0xbd42c1c4	-0.04754807
113	0x3cb15eb2	0.0216516
114	0x3d2031cd	0.039109994
115	0x3d0c59af	0.034265216
116	0x3d724313	0.059146
117	0x3d7ceea6	0.06175103
118	0x3cb36d38	0.021902665
119	0x3d1829cc	0.037149236
120	0xbb776170	-0.0037747286
121	0x3dc48d9c	0.09597322
122	0xbd93af47	-0.07211166
123	0x3cca0beb	0.024663886
124	0xbd23ce96	-0.039991938
125	0x3d023ac9	0.031794343
126	0x3c93090a	0.017948646
127	0x3d3a6ee7	0.04551592
128	0xbcf33c17	-0.029691739
129	0x3c469c99	0.012122297
130	0xbd88a5b1	-0.06672228
131	0x3dcbe360	0.09955478
132	0x3e120ccf	0.14262699
133	0x3d837b7c	0.06420037
134	0x3d25e15f	0.040498134
135	0xbbf0489d	-0.007332875
136	0x3d315527	0.0432941
137	0x3d371297	0.044695463
138	0x3dd352cc	0.103185266
139	0x3da0a74d	0.0784441
140	0x3d6063b4	0.054782584
141	0xbd0b6bd5	-0.034038384
142	0x3cd1cb9f	0.02560979
143	0xbd414bd2	-0.04719145
144	0xbd7347b5	-0.059394557
145	0xbd8ad6c3	-0.06779244
146	0x3d4e40d9	0.050354812
147	0x3d1c4d2a	0.038159527
148	0x3d6272ae	0.05528515
149	0x3d861a16	0.06547944
150	0xbcb9522b	-0.022622189
151	0xbc8c3e83	-0.017119652
152	0xbd5800b8	-0.05273506
153	0x3d2d32d3	0.042284798
154	0x3d7e38cf	0.062065896
155	0xbc858a89	-0.01630141
156	0x3cce589b	0.025188735
157	0xbd26b35e	-0.0406984
158	0x3d356133	0.04428215
159	0x3d04585a	0.03231082
160	0x3d679835	0.05654164
161	0x3b9701f7	0.0046083885
162	0xbcd0d927	-0.025494171
163	0x3cac4b1c	0.021031909
164	0xbdde1c6b	-0.10845264
165	0x3d4f233d	0.050570715
166	0x3d38e215	0.045137484
167	0x3dbfe41b	0.093696795
168	0x3d7a7de1	0.061155204
169	0x3d557c39	0.05212042
170	0x3b8e2e6c	0.00433903
171	0xbc411f65	-0.01178727
172	0xbb885dac	-0.004161557
173	0xbd3e948c	-0.046528384
174	0x3e1b14cc	0.15144652
175	0x3d5a9659	0.05336604
176	0x3d49f88d	0.049309302
177	0xbc6b0401	-0.014344216
178	0xbce61b11	-0.028089078
179	0xbd7567d8	-0.059913486
180	0xbc363886	-0.011121875
181	0x3ce35914	0.027752437
182	0x3d346a1a	0.0440465
183	0xbd7932a1	-0.0608393
184	0x3d044556	0.032292686
185	0xbac30f23	-0.001488183
186	0xbc647d77	-0.013945929
187	0x3c41b7f3	0.011823642
188	0x3af209ab	0.0018466016
189	0xbd2a9a0f	-0.041650828
190	0x3d047edb	0.03234754
191	0x3dc9484f	0.09828245
192	0x3df630c0	0.12021017
193	0x3d28b476	0.041187726
194	0x3d53f24b	0.05174474
195	0x3d7cc540	0.06171155
196	0x3d4ca97b	0.049966317
197	0x3d02b5e7	0.031911757
198	0x3dbb1214	0.091343075
199	0x3d40e1fa	0.047090508
200	0xbc0a6855	-0.008447726
201	0x3d19f147	0.037583616
202	0x3b8389c4	0.0040142257
203	0x3d30f2d0	0.043200314
204	0xbd8ccb5a	-0.06874724
205	0xbc136b5b	-0.0089977635
206	0x3d19d506	0.03755667
207	0x3d7ffd36	0.06249734
208	0xbd2200ee	-0.039551668
209	0xbd56a41b	-0.052402597
210	0x3d906f5c	0.0705249
211	0x3c48e41c	0.012261417
212	0x3d0a7f2e	0.033812694
213	0x3d3ef21d	0.046617616
214	0x3d2338f5	0.03984924
215	0xbd82b153	-0.06381478
216	0xbd3a0e8e	-0.045424037
217	0x3d102cc1	0.03519893
218	0x3d339d71	0.04385132
219	0xbcff2f14	-0.031150378
220	0x3cbc5de4	0.02299399
221	0x3d2e863b	0.04260848
222	0xbcf35464	-0.029703327
223	0xbbb5b369	-0.005545069
224	0xbd67412f	-0.05645865
225	0x3ac9a855	0.001538525
226	0xbc9de7e6	-0.019275617
227	0xbd0d0b55	-0.034434635
228	0x3de3f58d	0.111308195
229	0x3d6a43b8	0.057193488
230	0xbc687337	-0.014187626
231	0x3d5358e2	0.051598437
232	0xbc3e5862	-0.011617752
233	0x3d908390	0.070563436
234	0x3d419779	0.047263596
235	0xbd723a35	-0.05913754
236	0x3d4fa0e0	0.05069053
237	0x3c6ace0f	0.014331355
238	0xbd473335	-0.04863282
239	0x3d3d754c	0.04625444
240	0x3d816b24	0.063192636
241	0xbd4b50e9	-0.04963771
242	0x3daab25e	0.08334802
243	0x3ddb801b	0.107177936
244	0x3cc1fa9a	0.023679066
245	0x3d183c57	0.03716692
246	0x3d17dd6b	0.037076395
247	0x3d57f17c	0.05272053
248	0x3d2f214c	0.042756364
249	0x3d31ddf0	0.043424547
250	0x3d2124d7	0.039341774
251	0xbc21da04	-0.009878639
252	0xbc484010	-0.012222305
253	0xbc3e4e9e	-0.0116154235
254	0xbd81099c	-0.06300661
255	0xbc514da3	-0.012774858

layers.3.bias f4 [128]
0	0x3ca8b894	0.020595826
1	0xbc849c5f	-0.016187845
2	0xbd04e783	-0.03244735
3	0x3d40ea36	0.04709836
4	0x3d3c3a8a	0.045954265
5	0xbcd4bce8	-0.025968984
6	0xbd2cb3a6	-0.042163514
7	0x3d8c67eb	0.06855758
8	0x3ce9c83b	0.02853786
9	0xbcaf6adb	-0.021413257
10	0x3c811c11	0.015760453
11	0xbd24c6f5	-0.040228803
12	0xbc381731	-0.011235998
13	0xbb758ef5	-0.0037469242
14	0x3c3f24b2	0.011666464
15	0x3d161156	0.036637627
16	0x3d07ecfe	0.033184998
17	0x3ac8a151	0.0015306865
18	0x3d934008	0.07189947
19	0x3d812ea9	0.06307728
20	0xbd154d57	-0.03645071
21	0xbd562ec7	-0.052290704
22	0x3cd3ab40	0.025838494
23	0x3d740b86	0.059581302
24	0x3d3d27ee	0.046180658
25	0x3c03c490	0.00804247
26	0x3d5212c8	0.051287442
27	0x3d64c0a1	0.055847768
28	0x3d472ac9	0.048624787
29	0x3d3549e8	0.044259936
30	0xbb83acbf	-0.0040183957
31	0xbba9bf58	-0.0051802807
32	0x3cb250db	0.02176707
33	0x3bb2acd6	0.0054527326
34	0x3d5c051b	0.053715806
35	0xbd20c32c	-0.03924863
36	0x3d8b623c	0.06805846
37	0xbd359766	-0.044333838
38	0x3d815c84	0.06316474
39	0x3caf8d96	0.021429818
40	0xbad5738b	-0.0016285045
41	0xbd127ea4	-0.035765305
42	0x3c1c6d59	0.009547555
43	0xbcb656a0	-0.022258103
44	0xbd11bbda	-0.03557954
45	0xbbf9295a	-0.0076038064
46	0xbbf0a3c1	-0.0073437397
47	0x3d898e2e	0.06716572
48	0xbd1236cf	-0.0356968
49	0x3d50bc14	0.050960615
50	0xbc1dd931	-0.009634302
51	0xbd13a796	-0.036048494
52	0x3c9c39e7	0.019070579
53	0x3cb0a619	0.021563577
54	0xba084bda	-0.0005199291
55	0x3cd35d52	0.025801335
56	0x3bfc90d0	0.0077076927
57	0xbcfb95c6	-0.030711066
58	0x3d372473	0.044712495
59	0x3da3d63c	0.07999846
60	0x3d562e9c	0.052290544
61	0x3ce40951	0.027836474
62	0xbd2fb8b3	-0.042900752
63	0xbbccd165	-0.0062505477
64	0x3d3136fc	0.043265328
65	0xbc95360b	-0.018214246
66	0xbd088777	-0.033332314
67	0xbbbe818d	-0.0058137835
68	0xbc5f143d	-0.013615665
69	0x3d84b425	0.06479672
70	0xbcea6185	-0.028610954
71	0x3ce47c5f	0.027891336
72	0x3c53a4d7	0.012917719
73	0xbd575df9	-0.052579854
74	0xbcdcb32e	-0.026940908
75	0x3cd248aa	0.025669415
76	0xbc4095fe	-0.011754511
77	0xbd0a9219	-0.033830736
78	0x3cd2409d	0.025665576
79	0xbd62db51	-0.055384938
80	0xbc454bbb	-0.012041981
81	0xbc3f3a59	-0.011671626
82	0xbc6e062d	-0.01452784
83	0x3cc6cf47	0.02426876
84	0xbcf31e23	-0.029677456
85	0x3c96cd51	0.01840845
86	0xbc6f2d03	-0.014598134
87	0xbd2cda9c	-0.04220067
88	0xbd47b26d	-0.048754144
89	0x3d03fd35	0.0322239
90	0xbd01a919	-0.031655405
91	0x3d4f79f9	0.05065343
92	0x3cdbf52a	0.026850302
93	0x3cd01987	0.025402797
94	0x3d270e17	0.04078492
95	0x3d55607a	0.05209396
96	0x3ce6289e	0.02809554
97	0xbca45a67	-0.020062638
98	0x3cffd619	0.03123002
99	0x3d8da331	0.06915892
100	0xbd01edc5	-0.031720895
101	0x3d7972e8	0.0609006
102	0xbcd01936	-0.025402647
103	0x3cbb040e	0.022829082
104	0xbb9f8759	-0.0048684296
105	0x3d5024eb	0.050816458
106	0xbd36df61	-0.044646624
107	0x3d58f3c1	0.052966837
108	0xbcf28e80	-0.029608965
109	0xbccd50c2	-0.025062922
110	0xbd46d4f7	-0.048542943
111	0xbd23605b	-0.039886814
112	0xbd3a393e	-0.045464747
113	0x3d3cefcd	0.04612713
114	0x3c00d14c	0.0078624
115	0xbbf0f5d3	-0.0073535233
116	0x3d6a32e1	0.05717743
117	0x3b12aabf	0.0022379605
118	0xbd1ef612	-0.03880889
119	0xbd46ec1b	-0.04856501
120	0xbd39f5ae	-0.045400314
121	0x3d36b999	0.044610593
122	0x3d6b34b7	0.05742332
123	0xbb41f16e	-0.0029593366
124	0x3cea0a3d	0.028569335
125	0xb8222133	-3.865473e-05
126	0xbcbaccfb	-0.02280282
127	0x3d80a1c7	0.062808566

layers.5.weight f4 [64, 128]
0	0xbd95effd	-0.07321165
1	0x3c9d50de	0.0192036
2	0xbd02a1c9	-0.03189257
3	0x3d18b0db	0.037278038
4	0xbc9e8131	-0.019348713
5	0xbd5ad459	-0.053425167
6	0xbdb76a45	-0.08955816
7	0xbd7742fe	-0.060366623
8	0xbcd94f43	-0.026527053
9	0xbd5acc2f	-0.05341738
10	0xbd145589	-0.036214385
11	0xbd3ef16c	-0.046616957
12	0xbd8ca07a	-0.06866546
13	0xbd823216	-0.063572094
14	0xbd336e0a	-0.043806113
15	0x3d868fd1	0.065703996
16	0x3b2bb7cf	0.0026202088
17	0xbbcb682d	-0.006207487
18	0xbd964962	-0.073382154
19	0x3c4097d1	0.011754946
20	0xbd86e242	-0.06586124
21	0xbd9641b2	-0.07336749
22	0xbd0c9eae	-0.034331016
23	0x3d8fa96e	0.07014738
24	0x3cd4ddcc	0.025984667
25	0x3d5125f0	0.05106157
26	0xbd7a203b	-0.061065894
27	0x3d807e20	0.062740564
28	0xbd8a5b1d	-0.0675566
29	0x3d5c991f	0.053856965
30	0xbd4ee64c	-0.050512597
31	0xbd655666	-0.0559906
32	0xbb232f10	-0.0024899878
33	0x3d129e63	0.03579558
34	0x3d63ed82	0.055646427
35	0xbdac093d	-0.084001996
36	0xbc90012e	-0.017578688
37	0x3d141160	0.036149383
38	0x3cdc3bb9	0.026883947
39	0x3d540d42	0.051770456
40	0xbce7fd72	-0.028319094
41	0x3bf934c6	0.007605168
42	0x3d7c17de	0.0615462
43	0xbd690387	-0.05688813
44	0xbd813a61	-0.06309963
45	0xbba5b219	-0.0050566313
46	0xbcac606c	-0.021042071
47	0x3d9ff2f3	0.07810011
48	0x3d648565	0.055791277
49	0x3dac115a	0.08401747
50	0x3db1829d	0.08667491
51	0xbda0cf74	-0.078520685
52	0xbd8ee8f4	-0.06978026
53	0x3aa245c3	0.001238041
54	0xbdad0851	-0.08448852
55	0xbd6adad3	-0.057337593
56	0xbaeb0458	-0.0017930372
57	0x3d39f61c	0.045400724
58	0xbd8f10e9	-0.06985647
59	0x3d91f0c8	0.071260035
60	0xbc5a7d3b	-0.013335521
61	0xbda9cd9e	-0.082911715
62	0x3ca68a2e	0.020329561
63	0xbd0273cf	-0.031848725
64	0x3c49a089	0.012306341
65	0x3d0f4d51	0.034985844
66	0x3d805c50	0.06267607
67	0x3ba3941a	0.0049920203
68	0xbd086923	-0.03330339
69	0xbcb2ada1	-0.021811308
70	0xb9aeb3b6	-0.0003332176
71	0x3c47bfdb	0.012191738
72	0x3d408c90	0.04700905
73	0xbd977e7b	-0.07397171
74	0xbc08e957	-0.008356414
75	0xbccee35c	-0.025254898
76	0x3d913759	0.07090635
77	0x3c27e6b3	0.010247874
78	0xbd25314e	-0.040330224
79	0xbd8c6213	-0.06854644
80	0xbd092cd7	-0.03349003
81	0xbd2780c0	-0.04089427
82	0xbbd81a13	-0.006594905
83	0xbd990dd2	-0.07473339
84	0xbd978816	-0.07399003
85	0xbd43863b	-0.047735434
86	0xbdb37a11	-0.08763517
87	0x3d0a2e79	0.033735726
88	0x3d290770	0.04126686
89	0x3cebaf36	0.02877007
90	0xbd121a66	-0.035669707
91	0xbb98db7a	-0.0046648355
92	0x3dae621f	0.08514809
93	0x3da289f0	0.07936466
94	0x3cd7b6e0	0.026332319
95	0xbd456471	-0.04819149
96	0xbdb3338f	-0.087500684
97	0xbd6741ad	-0.056459118
98	0xbd403b27	-0.046931412
99	0xbcd5fa43	-0.02612031
100	0x3c23d8d1	0.0100004235
101	0x3c213336	0.00983887
102	0xbd9f057a	-0.077647164
103	0x3c06e60b	0.008233557
104	0xbd070400	-0.0329628
105	0x3d09ade3	0.033613097
106	0x3ca22f05	0.019797811
107	0x3c76cb23	0.01506308
108	0x3cf488c1	0.029850366
109	0x3bed25df	0.0072371806
110	0xbba13a68	-0.0049202926
111	0x3ce479c4	0.027890094
112	0x3cbcecf0	0.0230622
113	0xbc7e6955	-0.015528043
114	0xbdb4438b	-0.08801945
115	0x3d4ea4e8	0.050450236
116	0xbd66a3ea	-0.056308664
117	0xbd436c17	-0.047710504
118	0x3cd76bf4	0.026296593
119	0xbd76a2cf	-0.06021386
120	0xbcde9efd	-0.02717542
121	0xbbc999d0	-0.006152369
122	0x3d9e27db	0.077224456
123	0x3d13f3d0	0.03612119
124	0x3d8ba68c	0.06818876
125	0x3d56f7cc	0.05248241
126	0x3c8c4e0a	0.017127056
127	0xbda27b12	-0.0793363
128	0xbcb0c4c2	-0.021578196
129	0x3ca2b29d	0.01986056
130	0xb9fe00db	-0.00048447293
131	0xbdb905b8	-0.09034294
132	0x3d24bce1	0.04021919
133	0x3a92f43b	0.0011211702
134	0xbdbcc43b	-0.092171155
135	0xbc72b368	-0.014813282
136	0x3dc84242	0.09778263
137	0xbd140005	-0.03613283
138	0x3d05e2f8	0.032687157
139	0xbd59b1f7	-0.053148236
140	0xbd6d71ac	-0.057969734
141	0x3d9b1917	0.07573145
142	0xbc223cf0	-0.009902224
143	0xbda20124	-0.07910374
144	0xbd86c478	-0.06580442
145	0xbdadc2f9	-0.08484454
146	0xbd5730c6	-0.05253675
147	0x3d1cb422	0.038257726
148	0xbd8b743b	-0.068092786
149	0xbd02d28f	-0.031939086
150	0x3df6d03f	0.120514385
151	0x3b74bf1d	0.0037345358
152	0xbc2f5de6	-0.0107035395
153	0xbc3f1113	-0.011661786
154	0x3d79fabe	0.061030142
155	0x3e06858d	0.13136883
156	0x3d6ccb22	0.05781091
157	0x3cedd9e6	0.029034566
158	0x3e02c446	0.12770185
159	0x3d857a5b	0.06517478
160	0x3d9c4d65	0.07631949
161	0xbdaaf8af	-0.08348214
162	0xbdae941f	-0.085243456
163	0x3dcb57c4	0.09928849
164	0x3d0faf0a	0.03507904
165	0xbdd7dff5	-0.10540763
166	0x3d5d904f	0.0540927
167	0x3aa215a7	0.0012366072
168	0x3ccc8813	0.024967229
169	0x3dbd3156	0.09237926
170	0x3dc8653b	0.09784933
171	0xbd1d9c1b	-0.038478952
172	0xbcc32696	-0.02382211
173	0x3da59953	0.08085885
174	0x3d3173da	0.043323375
175	0xbce648a4	-0.02811081
176	0x3d503deb	0.0508403
177	0xbbc65d5d	-0.0060536102
178	0xbdd0b253	-0.10190263
179	0x3c2c0c86	0.010501033
180	0x3d1ddb93	0.03853948
181	0x3cf6a900	0.030109882
182	0x3d245d8e	0.040128283
183	0x3d45ccdc	0.048291072
184	0xbc36dad1	-0.011160568
185	0x3cb0bcb7	0.021574361
186	0x3d8a4bdb	0.067527495
187	0x3cdc905e	0.026924308
188	0xbad40d8c	-0.0016178354
189	0xbddf863e	-0.109142765
190	0xbd453835	-0.048149306
191	0xbd81608c	-0.06317243
192	0x3d291321	0.04127801
193	0xbc0edc5e	-0.008719532
194	0x3d09e7cb	0.03366832
195	0xbdd3385f	-0.10313486
196	0xbd564cbd	-0.052319277
197	0x3cf3043a	0.029665101
198	0xbd923db3	-0.071406744
199	0x3c53f1e6	0.012936091
200	0x3d92b7d2	0.07163967
201	0x3bf2f3cf	0.007414318
202	0xbddaf36e	-0.10690962
203	0xbb864f1e	-0.004098787
204	0xbd6c2758	-0.05765471
205	0x3daff1ab	0.085910164
206	0xbd0a41f8	-0.03375432
207	0x3d8dd6a0	0.06925702
208	0x3dcf3171	0.10116852
209	0xbd64c934	-0.055855945
210	0x3db3bd90	0.087763906
211	0x3d7c7648	0.06163624
212	0x3da5eeff	0.081022255
213	0x3de4e509	0.111764975
214	0xbd558ca6	-0.052136086
215	0xbc242cc0	-0.010020435
216	0x3bf1edea	0.007383098
217	0xbd6f2bed	-0.0583915
218	0xbdbaa00a	-0.09112556
219	0x3da2f293	0.079564236
220	0xbd3361e5	-0.04379453
221	0x3d15cd2a	0.036572613
222	0x3da398bb	0.079881154
223	0xbdf1ae28	-0.11800796
224	0x3b8ce2e2	0.0042995075
225	0x3d9a451e	0.07532714
226	0x3a3fdc36	0.0007318886
227	0xbc28aa70	-0.010294542
228	0x3b521bc3	0.0032060004
229	0x3cbddb09	0.023175733
230	0xbdb36f48	-0.087614596
231	0xbbfacc48	-0.0076537468
232	0x3cda79a2	0.026669327
233	0xbdb1c4ce	-0.08680116
234	0xbdaba169	-0.08380396
235	0x3dd0d6ea	0.101972416
236	0x3d9812ae	0.07425438
237	0x3d550fa7	0.05201688
238	0x3d0ce001	0.034393314
239	0xbcd4a6cc	-0.025958441
240	0xbda7ec36	-0.081993505
241	0x3d62ab56	0.05533918
242	0x3d01ce32	0.031690784
243	0x3d046f0a	0.032332458
244	0x3d4bfc27	0.049801018
245	0xbc9ade7c	-0.018904917
246	0x3d6bdf17	0.057585802
247	0xbda275d8	-0.07932633
248	0x3d3ac173	0.045594644
249	0xbcc5e78a	-0.024158258
250	0xbd64cebc	-0.05586122
251	0xbc77fb44	-0.01513559
252	0x3da0e991	0.07857049
253	0x3d3202e2	0.04345978
254	0x3d26d688	0.040731937
255	0x3db7ff2a	0.089842156

layers.5.bias f4 [64]
0	0xbd391d69	-0.045194063
1	0x3db5275c	0.08845398
2	0x3dc8d937	0.098070554
3	0xbc8ec106	-0.017426025
4	0xbb712caf	-0.0036800315
5	0xbd739f8d	-0.05947833
6	0x3d6b6abc	0.057474837
7	0x3920efab	0.00015348072
8	0x3b1ecd77	0.0024231353
9	0x3d8634e9	0.065530606
10	0x3d24eecf	0.040266808
11	0xbd30004d	-0.042969037
12	0x3d167739	0.036734793
13	0xbd378251	-0.044802014
14	0x3d43528d	0.04768615
15	0x3c6e8d6b	0.014560084
16	0xbc8a7ccd	-0.016905213
17	0x3ce91cb7	0.028456075
18	0xbcdd4fd4	-0.027015604
19	0x3ce545b0	0.027987331
20	0x3d11fd90	0.035642207
21	0x3db58d36	0.088648245
22	0x3cb0c9e8	0.021580651
23	0x3cf56ed9	0.029960083
24	0x3d65618c	0.05600123
25	0xbbaa6518	-0.0052000396
26	0x3c177c2c	0.0092459135
27	0x3d472d59	0.04862723
28	0xbd6c23a4	-0.057651177
29	0x3c8dd371	0.017312737
30	0xbd85747d	-0.06516359
31	0x3d97cbcc	0.07411918
32	0x3d01ef2f	0.031722244
33	0xbcc1a3f2	-0.023637746
34	0x3d95c0ea	0.07312186
35	0xbd93d289	-0.07217891
36	0xbc1684da	-0.009186948
37	0xbd5fb3e4	-0.054614916
38	0x3d78b4e5	0.06071939
39	0x3d364155	0.0444959
40	0x3b2a5bb6	0.0025994605
41	0x3d654f10	0.055983603
42	0xbd78a262	-0.060701735
43	0xbd178404	-0.036991134
44	0x3db939ef	0.09044253
45	0x3bdc882f	0.0067301015
46	0xbcef6bc2	-0.029226188
47	0x3d96b6ad	0.073590614
48	0x3c95ebc7	0.018300904
49	0x3dbecf8c	0.0931693
50	0x3d4c7373	0.04991479
51	0xbd8b0d43	-0.06789639
52	0xbdb06586	-0.08613114
53	0x3d57d137	0.052689757
54	0x3c1b412a	0.009475986
55	0xbca96f1c	-0.020682864
56	0xbd9f2441	-0.07770587
57	0x3cb99bb5	0.022657255
58	0xbce3d2ff	-0.027810572
59	0x3d5245ba	0.051336028
60	0x3dc4d879	0.096116014
61	0xbd764fe4	-0.060134783
62	0xbda4875c	-0.0803363
63	0x3d12068b	0.03565077

layers.7.weight f4 [10, 64]
0	0xbdf05f98	-0.11736983
1	0xbd7fc595	-0.06244429
2	0xbdba9ae7	-0.091115765
3	0xbd0205f3	-0.031743955
4	0xbd0b6dcb	-0.034040254
5	0x3df3e7c5	0.11909441
6	0xba5461d0	-0.00081017334
7	0x3d20ed60	0.03928888
8	0xbd7e0d68	-0.062024504
9	0xbd5b9c58	-0.053615898
10	0xbdad55ab	-0.084636055
11	0xbde71828	-0.11283904
12	0xbe338534	-0.17531282
13	0x3df0d696	0.11759679
14	0xbd7ceeb6	-0.06175109
15	0x3d8dce92	0.06924166
16	0x3a18f03f	0.00058341393
17	0xbcfc452c	-0.030794702
18	0x3cf1f64e	0.029536393
19	0xbe01a7bd	-0.12661643
20	0xbdd7de37	-0.10540431
21	0x3caa9e0c	0.020827316
22	0x3a1db505	0.0006016049
23	0xbe216cd9	-0.15764178
24	0x3dbce78d	0.09223852
25	0xbda31672	-0.079632655
26	0x3d29a796	0.041419588
27	0xbd8987c6	-0.0671535
28	0xb983030f	-0.00024988546
29	0xbe032fb3	-0.12811165
30	0x3e2527a5	0.16128404
31	0xbdbbf3e8	-0.09177381
32	0xbe04a099	-0.12951888
33	0x3dd78f10	0.10525334
34	0x3dcdc7d4	0.1004788
35	0xbe428c5c	-0.18998855
36	0xbbc79981	-0.006091297
37	0xbd5b9a46	-0.053613923
38	0xbde5f12f	-0.11227643
39	0x3d8a3183	0.06747725
40	0xbdfdddf0	-0.12395847
41	0xbda74644	-0.08167699
42	0x3ce2a861	0.02766818
43	0xbd6c29a6	-0.057656907
44	0xbd1e9929	-0.038720284
45	0x3e027b0c	0.12742251
46	0x3d3db4b0	0.046314895
47	0x3ca43bfc	0.020048134
48	0x3e06af00	0.13152695
49	0xbd400928	-0.046883732
50	0x3db7c101	0.089723594
51	0x3dcde9fc	0.100543946
52	0xbdbfc213	-0.093631886
53	0x3e296f33	0.16546325
54	0x3d132c8e	0.035931163
55	0xbcedfc5f	-0.029051004
56	0x3d56dd5d	0.052457202
57	0x3dbb068b	0.09132107
58	0xbd87997e	-0.06621073
59	0xbe3022e9	-0.17200817
60	0xbe167715	-0.14693864
61	0x3dba07f0	0.09083545
62	0x3de95342	0.11392833
63	0x3d9ff715	0.07810799
64	0xbaf7837e	-0.0018883792
65	0xbe23478b	-0.1594526
66	0x3d0f3f79	0.03497264
67	0xbe19ae0a	-0.15007797
68	0xbe0d3a51	-0.13791777
69	0xbd7665e5	-0.060155768
70	0xbc90bc6a	-0.017667968
71	0x3d9b2c87	0.07576852
72	0xbd387bb6	-0.045039855
73	0x3de6b8bb	0.11265703
74	0x3cb10ba0	0.021611989
75	0x3df92c6f	0.12166678
76	0xbe1691a8	-0.14704001
77	0xbdde4bd0	-0.10854304
78	0xbc02aed2	-0.007976251
79	0x3df0924f	0.11746656
80	0x3deba1cf	0.11505472
81	0xbdeaa621	-0.11457468
82	0x3def55c5	0.11686281
83	0x3d5097f6	0.05092617
84	0x3daeff63	0.08544805
85	0xbe174fd3	-0.14776544
86	0xbe61e763	-0.22060923
87	0x3dad0dbe	0.08449887
88	0x3d053ce5	0.032528777
89	0xbcaacea5	-0.020850489
90	0x3dd49bec	0.10381302
91	0x3da83203	0.08212664
92	0x3e02923f	0.12751101
93	0x3de8ef53	0.113737725
94	0x3dee7773	0.11643877
95	0x3dd80d67	0.10549431
96	0x3d14a72d	0.036292244
97	0xbe24269b	-0.16030352
98	0x3dddd20d	0.1083108
99	0x3da39918	0.07988185
100	0xbcabe5ce	-0.020983603
101	0x3d0c4350	0.03424388
102	0x3e0cc1ba	0.13745776
103	0x3b94e29d	0.004543616
104	0xbc20627c	-0.0097891055
105	0x3e0f1524	0.13972908
106	0x3c3dbf55	0.011581262
107	0xbe3ac538	-0.18239295
108	0xbd2ad89d	-0.041710485
109	0xbd638410	-0.055545866
110	0xbe452ba8	-0.19254935
111	0x3df9e493	0.122018
112	0xbe18d3f8	-0.1492461
113	0xbd0166f0	-0.03159231
114	0xbb9b3335	-0.004736329
115	0xbd662ca1	-0.056194905
116	0x3da34354	0.07971826
117	0xbc070867	-0.008241749
118	0xbdf480ad	-0.119386055
119	0x3d3dd705	0.046347637
120	0xbe063f25	-0.13110025
121	0xbe3d33c3	-0.18476777
122	0xbddeb585	-0.10874466
123	0x3dba5a27	0.090992264
124	0xbdfc87ec	-0.123306125
125	0xbd3f5416	-0.04671105
126	0xbe1d4452	-0.15358093
127	0xbdab874b	-0.083754145
128	0xbd04a20d	-0.032381106
129	0x3d65b421	0.056079987
130	0x3d262397	0.040561285
131	0xbd945e31	-0.07244528
132	0xbd9088fa	-0.07057376
133	0xbdea1977	-0.11430638
134	0x3e00845b	0.1255049
135	0x3dc6bec9	0.09704358
136	0x3de387be	0.11109875
137	0x3bcf7fbb	0.0063323653
138	0x3de44ae5	0.111470975
139	0x3de0bec7	0.10973888
140	0x3e1ee38d	0.15516491
141	0x3e065cac	0.13121289
142	0xbd6bb4b1	-0.057545368
143	0xbdb995e0	-0.090617895
144	0x3da86f5f	0.08224367
145	0x3d17f4a9	0.03709856
146	0xbcba2f18	-0.022727534
147	0x3dc7b087	0.09750467
148	0x3d1af9bc	0.03783582
149	0x3cb1b4ca	0.021692652
150	0x3befebb3	0.0073217987
151	0x3d0f75c4	0.03502442
152	0x3d1229e3	0.035684478
153	0x3dcfbe19	0.1014368
154	0x3ded14fc	0.11576268
155	0xbe06dad3	-0.13169412
156	0xbbc6e942	-0.006070287
157	0xbda51fa2	-0.08062674
158	0x3db121c2	0.08649017
159	0xbe0f86a7	-0.1401621
160	0xbd8fc600	-0.070201874
161	0xbcc1a61f	-0.023638783
162	0xbdc16c80	-0.09444523
163	0x39dc7a84	0.0004205295
164	0xbd86ad61	-0.06576038
165	0xbb1bfe64	-0.0023802752
166	0xbd665f94	-0.056243494
167	0x3e06a8c1	0.13150312
168	0xbe14e907	-0.14542018
169	0x3dca77a5	0.09886102
170	0x3e045003	0.12921147
171	0xbd9746ba	-0.07386537
172	0xbdf6e67f	-0.120556824
173	0x3dd09e7c	0.101864785
174	0xbd811d34	-0.06304398
175	0xbcd6b13e	-0.026207563
176	0x3d75fbbf	0.060054537
177	0xbd8a9b18	-0.06767863
178	0xbd3c362a	-0.045950092
179	0x3e196019	0.14978065
180	0xbde41784	-0.11137298
181	0x3c15fd51	0.009154634
182	0xbdfe80f1	-0.12426937
183	0xbbd6ea41	-0.006558687
184	0x3c652f14	0.013988275
185	0xbdd19868	-0.10234147
186	0xbc3ab0bf	-0.011394679
187	0x3d6f4406	0.05841448
188	0xbdb984dc	-0.09058544
189	0x3dc338c6	0.09532313
190	0xbdbe81e4	-0.093021184
191	0xbb84de2e	-0.004054806
192	0xbcd15cf3	-0.025557017
193	0x3d576c0b	0.052593272
194	0x3d9bcb5d	0.07607148
195	0xbc64c865	-0.013963793
196	0x3def3370	0.11679733
197	0xbe00b1b4	-0.12567788
198	0x3da73ce1	0.081659086
199	0xbdfd0096	-0.123536274
200	0x3c7696c9	0.015050598
201	0xbe0a2136	-0.13489231
202	0xbde2a5e1	-0.11066795
203	0xbd8ceeb8	-0.068814695
204	0x3d71cf11	0.059035365
205	0x3d76178e	0.060081057
206	0xbc051533	-0.00812273
207	0x3de89b47	0.11357742
208	0xbdadec51	-0.084923394
209	0x3de37a34	0.11107293
210	0xbd209aba	-0.03921006
211	0x3c9cc07d	0.019134754
212	0x3e2dd486	0.16975603
213	0x3e1cad48	0.15300477
214	0x3d8569c7	0.06514316
215	0x3b9c16b3	0.004763448
216	0xbddd20c2	-0.10797264
217	0x3d9fbfd2	0.07800259
218	0x3db73f36	0.089476034
219	0x3e074ffc	0.13214105
220	0xbcb72b6e	-0.022359576
221	0x3c7ffad0	0.015623763
222	0xbde3de41	-0.11126376
223	0x3e17f51d	0.14839597
224	0x3dcb2c27	0.09920531
225	0xbe1798cc	-0.14804381
226	0xbc83b652	-0.016078148
227	0x3d408add	0.04700743
228	0x3d671f52	0.056426354
229	0x3de53a68	0.11192781
230	0x3c440e15	0.011966248
231	0x3dc042a9	0.093877144
232	0xbd9a2891	-0.07527269
233	0xbdb91759	-0.09037656
234	0xbb73e28a	-0.0037213885
235	0xbdeeb7df	-0.116561644
236	0xbe02f525	-0.12788828
237	0x3d9c2aeb	0.076253735
238	0x3c239097	0.009983203
239	0xbbb9c757	-0.005669515
240	0xbde9adfe	-0.114101395
241	0xbe1d03d7	-0.15333496
242	0xbd15a51c	-0.036534414
243	0xbd87c306	-0.06628995
244	0x3c911ec4	0.017714866
245	0xbc28f482	-0.010312201
246	0xbd5eb925	-0.054375786
247	0xbe10a298	-0.14124525
248	0xbd432b22	-0.047648557
249	0xbe0ea91a	-0.13931695
250	0xbdb9a73d	-0.09065101
251	0xbdc36f2d	-0.095426895
252	0xbcc9bee1	-0.024627151
253	0x3dd1fd6c	0.102534145
254	0x3daa19c0	0.08305693
255	0x3dcf5d09	0.10125167

layers.7.bias f4 [10]
0	0x3dd39ca4	0.10332611
1	0xbd521eb5	-0.051298816
2	0xbcee0cba	-0.029058803
3	0x3d2ac11b	0.041688066
4	0xbd0b2da2	-0.033979066
5	0xbdb9ab89	-0.09065921
6	0xbd71132d	-0.058856178
7	0x3bca0489	0.0061650914
8	0xbd7c1a07	-0.06154826
9	0x3d9c52fc	0.076330155
