models/Nanook.pth (torch, 909055 bytes, 8 tensors)

layers.0.weight f4 [32, 1, 3, 3]
000000 96 7d d7 3a e7 57 b7 be bc 7c 51 be 2a 80 f6 be
       0.0016440626 -0.35809252 -0.20457739 -0.48144656
000010 ba 6f 46 3c 44 94 a7 3e 97 b6 ca 3c 62 6c 97 3e
       0.012111599 0.32730305 0.024745269 0.29574877
000020 e0 5f cf 3d 58 e1 ba be 8e 19 e9 be e9 c8 3b be
       0.101257086 -0.3650005 -0.4552731 -0.1833836
000030 65 b2 db 3d c6 1f 01 3e 3f 46 78 be ae a3 56 3e
       0.107273854 0.12609777 -0.24245547 0.20960876
000040 89 d3 3e 3e 2a 4c 29 bc 2c 2c 7d be 6d da 05 3d
       0.18635382 -0.0103331 -0.24723881 0.03267901
000050 be 0a ad 3d 1d 0a 78 3e 8d 9c 4f be ad c9 61 be
       0.084493145 0.24222608 -0.20274563 -0.2204959
000060 7e 82 64 be 7c bf c6 3c a4 51 44 3e 7f c0 29 be
       -0.22315404 0.024261229 0.19171768 -0.16577338
000070 6d c3 ac be b8 a5 3e 3d 63 5a 48 3e c0 97 64 be
       -0.33742848 0.04654476 0.1956573 -0.22323513
000080 fb 2a b4 be 94 06 f4 3e f2 1f 0a be 1f a7 87 3e
       -0.35189041 0.4766127 -0.13488749 0.2649469
000090 6a 41 ab 3c e3 e5 85 3d cc 86 ab bd 0f ac 9e bd
       0.020905215 0.06537988 -0.0837532 -0.07747661
0000a0 14 a7 3b be 57 64 10 be 50 7a 2f 3d 61 0b 37 3e
       -0.18325454 -0.14100777 0.042841256 0.17875434
0000b0 00 44 89 34 e3 d7 e6 3d 74 92 78 be 6e 4a e3 be
       2.5567715e-07 0.11271646 -0.24274617 -0.44392723
0000c0 92 1a 9f 3e 26 b0 33 3d cc 9b 85 be 0d 65 af 3e
       0.3107496 0.04386916 -0.26095426 0.34256783
0000d0 57 65 a4 3d 92 2d 78 3d d7 b7 1a be 7b ce b4 3e
       0.080271415 0.060590334 -0.15109192 0.35313782
0000e0 fc b4 aa be b9 29 d2 3e d6 d8 85 bd 6f 2b b8 be
       -0.33341205 0.41047457 -0.06535499 -0.35970637
0000f0 0f e8 27 bd 47 07 d4 be 9b dd 9a 3d db 50 91 be
       -0.040992793 -0.41411802 0.07561799 -0.28382
000100 27 87 6b be 39 55 c8 3e 02 be 9d 3e 8d 52 ed be
       -0.23000775 0.3912752 0.30809027 -0.46352044
000110 60 cc ab bd e6 29 b7 3e 49 ca 98 be fe 9b b9 bb
       -0.08388591 0.35774153 -0.2984183 -0.0056643477
000120 95 3e 38 3e a3 8f 3a 3e ca 53 1e 3d d1 3c d6 bd
       0.17992623 0.18218856 0.038654126 -0.104608186
000130 e4 60 1b 3e 13 77 25 3e 10 bf 26 be 42 14 82 bd
       0.1517368 0.16158704 -0.16283822 -0.0635152
000140 1e 03 d7 bd 29 d3 34 3e 28 ed 82 3d 83 7e 64 3e
       -0.104986414 0.17658676 0.0639289 0.22313885
000150 82 28 2f be 99 00 77 3e f3 26 9f 3e fb e6 fd be
       -0.17105296 0.24121322 0.31084403 -0.49590287
000160 98 21 23 be 5b 4b 6c bd e2 7a a7 be 15 3b 14 be
       -0.15930784 -0.057689052 -0.3271094 -0.14475663
000170 16 31 88 3c 2e ec 02 3e ac 03 89 be d2 4c 9a 3e
       0.016624968 0.12785408 -0.26760614 0.30136734
000180 59 d6 cb be 09 dc 4e bc c1 7c 87 3e 9a d2 39 be
       -0.39811972 -0.012625703 0.26462367 -0.18146744
000190 3c b5 c2 3e a5 5a fa bd 91 bf 96 be 82 95 98 3c
       0.38028896 -0.1222432 -0.2944303 0.018625978
0001a0 6e 91 93 3e bb db 95 be 91 6e 4f be 21 67 b6 3e
       0.28821892 -0.29269204 -0.20257021 0.35625556
0001b0 36 09 ee 3d 49 f0 44 bd d5 bc bb 3d 91 f4 0b be
       0.116228506 -0.048080716 0.09166876 -0.13667513
0001c0 a2 96 12 3e 90 81 a6 be f4 5d e6 3d 4e 4e 3e bd
       0.14315274 -0.32520723 0.11248389 -0.046461396
0001d0 0f 5e f0 bd 94 04 e7 3d f0 2e 27 3e 38 ef c7 3e
       -0.1173669 0.1128017 0.16326499 0.39049697
0001e0 07 ad 5f 3d 42 07 5e 3d a5 50 8c bc 63 06 de be
       0.05460837 0.05420614 -0.017128298 -0.43364248
0001f0 49 a2 6e be f6 0e e0 be 53 df 80 3d 59 80 d5 be
       -0.23304094 -0.43761414 0.06292596 -0.41699484
000200 77 98 d7 be 0e b2 80 3c e6 f3 9b 3d 64 26 cc bd
       -0.4210851 0.015709903 0.07614879 -0.0996826
000210 88 6e bb 3d 6c 6d b4 3e 72 6f a1 3e 97 be 1d 3e
       0.091519415 0.35239732 0.3153034 0.15404736
000220 9f b0 dc 3e 6f b8 93 bd a8 35 31 3e 2a 4f 6d 3d
       0.431035 -0.07212912 0.17305624 0.057936825
000230 f2 11 da be 5a a6 19 3e 79 3c 89 be 5a 3f 35 be
       -0.42591816 0.15004864 -0.2680395 -0.17699948
000240 43 99 67 be dd c2 ce bd a6 f4 c5 3d ff 14 2a be
       -0.22617058 -0.10095761 0.096658036 -0.16609572
000250 55 26 8b be 64 97 b2 be 9c 95 ce 3e 04 a3 b6 3d
       -0.27177683 -0.34881127 0.40348518 0.089178115
000260 52 d8 35 be 83 59 56 bd b7 01 16 3e 85 f7 83 be
       -0.17758301 -0.05233146 0.14649092 -0.2577478
000270 da 7f 3a be d7 5d 63 be 82 1c 94 be 74 57 77 bd
       -0.18212834 -0.22203766 -0.28928 -0.060386136
000280 24 00 88 be 73 d5 a1 3e 44 8c 01 be 04 0f 5d 3c
       -0.26562607 0.3160816 -0.12651163 0.01349235
000290 55 ae 08 3e 21 8c 67 bc d1 18 0b 3e 82 91 27 be
       0.13347752 -0.01413253 0.13583685 -0.163641
0002a0 0e 38 36 3e fe b6 4f be a3 6a ef bd e6 4f 89 be
       0.1779482 -0.2028465 -0.11690261 -0.2681877
0002b0 30 ce 0d be f8 1e ef 3c 5a 9a be 3e 32 7c 0c 3e
       -0.13848186 0.029189572 0.37227136 0.13719252
0002c0 75 01 46 3e e5 17 68 be b3 1e c8 be 76 7b 64 3e
       0.19336493 -0.22665365 -0.39085922 0.22312722
0002d0 02 7f 27 be 39 aa 7c be 92 c7 b8 be 7f 7a 74 bd
       -0.16357043 -0.2467431 -0.3608976 -0.059687134
0002e0 2a e1 b7 bd 55 27 74 3e 1f 2c af 3e fe f2 47 3e
       -0.089784935 0.23843129 0.3421335 0.19526288
0002f0 9b 27 7e 3d 16 f2 45 bd 8c 97 fd bd 4a bc e6 3d
       0.06204949 -0.048326574 -0.12382421 0.11266382
000300 8b 57 8b 3e d0 ce 58 be 88 75 ae be c6 c9 d1 3c
       0.27215227 -0.21172643 -0.34074044 0.025608908
000310 f3 0a 8a 3e 81 b7 4f bd 33 13 4a 3e a3 e0 e6 3d
       0.2696148 -0.050712112 0.19733886 0.11273315
000320 a5 b3 f9 bc e2 96 a2 be 27 6e 61 3e a8 d2 44 3e
       -0.030481169 -0.3175574 0.22014676 0.19220984
000330 e4 f6 91 3e 6d 0f d1 bb f9 6c d4 bd f0 dc 91 3d
       0.28508675 -0.0063800127 -0.103723474 0.071222186
000340 1f 3a 3c bd 34 e8 a2 be 3b 8e 0c 3e 38 fd b1 be
       -0.045953866 -0.31817782 0.13726132 -0.34763503
000350 02 a0 95 be 7d a6 1b be d8 b4 8a be be 40 10 be
       -0.2922364 -0.15200229 -0.27091098 -0.14087197
000360 8b eb 44 3e d6 ea 93 bd 8e 7d 2d be 10 07 c0 3e
       0.19230478 -0.07222526 -0.16942427 0.37505388
000370 d2 c4 5a be 28 b1 be be d4 41 a2 3e 58 c5 a7 be
       -0.21364143 -0.37244534 0.31690848 -0.3276775
000380 18 c8 45 be a9 1b a2 bc e1 b1 a7 3e ae 5d ed 3e
       -0.19314611 -0.01978858 0.32752898 0.46360534
000390 b3 75 f4 be 45 9a 61 be b5 4e f2 bd 93 39 38 be
       -0.47746047 -0.22031505 -0.118314184 -0.17990713
0003a0 1d 2c c0 be 1e 04 8a be e8 54 f1 3b f7 27 9f 3e
       -0.37533656 -0.26956266 0.007364858 0.31085178
0003b0 3e 1d a0 3d 38 1d 48 3e 94 05 ae 3e ba 4d 66 be
       0.078180775 0.19542396 0.3398863 -0.22490588
0003c0 9f 77 24 be c8 26 ee be 8e e3 7e be a7 fd af be
       -0.16061257 -0.46513963 -0.24891493 -0.3437321
0003d0 e3 d9 cb bd a2 61 09 bd fb a7 6e 3e 47 4e 21 3e
       -0.09953668 -0.033540376 0.23306267 0.15752517
0003e0 cc a0 51 3e a9 45 89 bd 24 52 07 be 21 28 de bd
       0.20471495 -0.0670274 -0.13214928 -0.10847498
0003f0 d5 ea cf 3e dd 5c bf 3e e6 d6 29 be 29 a6 c5 bd
       0.4060885 0.37375537 -0.16585883 -0.09650833

layers.0.bias f4 [32]
000000 4a ba 43 be 83 c2 7f 3d 40 6d 92 be 66 af 86 bd
       -0.19114032 0.06244136 -0.28598976 -0.06576423
000010 e9 8e 6d be 43 34 03 be fa 8f 21 be 10 6a 3b be
       -0.23199047 -0.12812905 -0.15777579 -0.18302178
000020 c0 57 97 be 2e ff b2 be 8a fb 6f be 36 bd 98 be
       -0.29559135 -0.34960312 -0.23435798 -0.29831856
000030 dd 25 df bd 35 1a 90 3d 49 52 ff bd fa 12 68 bc
       -0.10895894 0.070362486 -0.124668665 -0.014164681
000040 db 48 31 3e a2 a3 86 3d 8b 74 1e be 08 8e 62 be
       0.17312948 0.06574179 -0.15474145 -0.22124493
000050 dc e1 61 bd 37 0b 34 be 31 67 b0 be d6 90 2b 3e
       -0.055147037 -0.17582403 -0.3445373 0.1675447
000060 0b 16 73 3d 89 50 6b be 11 53 0b be 0a 9d 16 be
       0.059347194 -0.2297994 -0.13605906 -0.14708343
000070 06 81 92 be f0 99 e6 bd d9 ac 11 be 7d 9e d3 bd
       -0.28614062 -0.1125983 -0.14226092 -0.103329636

layers.3.weight f4 [64, 32, 3, 3]
000000 5d 58 51 3d 3e 2d d6 bd 95 2a 24 3e 00 ef eb bd
       0.05110966 -0.10457848 0.16031869 -0.11520195
000010 3f 10 8c bd ef 8a 9d 3d 51 70 07 be 9d 6d 7d be
       -0.06839036 0.07692515 -0.13226439 -0.24748845
000020 1a ca 70 be a5 80 ca 3d 0e 03 b6 bd d6 7b cc bd
       -0.23514596 0.09887818 -0.088873014 -0.09984557
000030 20 bb f9 bc 1b 7f 25 be dc ea 92 be d9 ff 9d 3d
       -0.030484736 -0.16161768 -0.28694808 0.07714815
000040 4e 8a 3b 3c 95 85 2c be 0e 10 8c bc ee d2 a1 bc
       0.011446549 -0.16847833 -0.0170975 -0.0197539
000050 64 7c 3b 3e 1a 22 ac bd 39 b6 fa bc e2 3c bf 3d
       0.1830917 -0.08404942 -0.030604469 0.09337784
000060 36 8f 20 bd eb fd af bd 34 84 92 3c 82 e3 23 bd
       -0.039199077 -0.08593353 0.017885305 -0.04001189
000070 ad 1d c8 3c 65 1c 30 bd 5e a4 81 3c d3 82 9f bd
       0.024428213 -0.04299583 0.015825447 -0.077886246
000080 fd 55 41 be 28 8c c4 3c e3 34 e1 bd 4a 17 8f 3c
       -0.18880458 0.023992613 -0.109964155 0.01746716
000090 c3 7c b7 bd 7e d6 d1 3b 76 f0 6a 3d ed 7b fd bc
       -0.08959343 0.0064037433 0.057358228 -0.030942881
0000a0 c6 a0 89 bd 1e 70 26 3d 3d 9b f5 bc 8a 91 c8 bd
       -0.06720118 0.040634267 -0.02998125 -0.097933844
0000b0 29 61 59 bc ad a4 8a 3d b6 56 a0 bd 62 ff 2b be
       -0.013267794 0.06769691 -0.07829039 -0.1679664
0000c0 fa 6a cb bc 34 28 c1 be e7 ed 67 3d 5e 27 2d 3e
       -0.024831284 -0.37725985 0.056623366 0.16909549
0000d0 7e ca f1 bd d7 23 1d 3d ac ec b8 ba ee 9f 76 3c
       -0.118062004 0.038364258 -0.001410862 0.015052779
0000e0 11 d4 c7 bd bb aa 54 3e 73 07 7f bd ea 3c 05 3e
       -0.09757245 0.20768254 -0.062262964 0.13011518
0000f0 60 64 cd bd 60 52 0a be dc 84 19 bd e2 d7 03 3e
       -0.10028911 -0.13507986 -0.03748022 0.12875322
000100 b9 a7 d6 3a f1 f1 a4 bd 45 10 a7 3d 25 1a 31 3d
       0.001637689 -0.08053959 0.081574 0.043237824
000110 2c e8 c1 bc b9 78 92 3c 8b 82 73 3e f4 cf 30 3e
       -0.023670278 0.01787983 0.23780267 0.17266828
000120 b2 62 93 3d be 6a 52 3d af 07 5f 3c f1 fa 88 3a
       0.07196559 0.05137133 0.013612672 0.0010450763
000130 60 ac 0f 3c 75 29 df 3c b2 79 a5 be 89 c1 93 bd
       0.008769125 0.027241448 -0.3231941 -0.07214648
000140 62 91 83 3d 30 c5 8d 3c 88 64 95 bc cd 5b 51 bc
       0.06424214 0.01730594 -0.018236414 -0.012778235
000150 23 cf 79 bd ad c9 fe 3d 00 e1 65 3d d7 f2 44 be
       -0.060988557 0.1244081 0.05612278 -0.19233261
000160 3a 16 e5 3c 40 ef 2e 3e 3c 8a 72 3c 84 6d 0b 3a
       0.0279647 0.17083454 0.014803465 0.00053187483
000170 04 07 57 3e df 4d 01 be 30 22 9a 3d a0 5d 2e 3e
       0.2099877 -0.12627362 0.07526052 0.17027903
000180 20 f8 d8 bd e7 a8 90 bc 49 84 19 3e 29 a6 f9 bb
       -0.10594201 -0.017658664 0.14991869 -0.007618685
000190 5e 93 c1 3d 0d 7b 0b 3d 4d 2c 9f bd 68 95 21 3d
       0.09451936 0.034052897 -0.077721216 0.039449126
0001a0 e0 9d fc 3d 10 2a 41 be 57 68 99 3c 6f 5d 34 3e
       0.123348 -0.18863702 0.01872651 0.17613767
0001b0 bf 3a 8e 3d 4e dd ca bd 72 2c 50 3d 36 59 2f 3b
       0.06944799 -0.09905492 0.050823636 0.0026756055
0001c0 d8 08 07 be 8d 21 b6 3c c3 93 81 bd f8 43 ad bd
       -0.13186967 0.022232795 -0.063270114 -0.0846023
0001d0 6d 79 6d bd 9c 24 9d 3d a6 66 2d 3c 8d c1 29 be
       -0.05797713 0.07672998 0.010583555 -0.1657774
0001e0 4a 6b 3b bc 37 61 1b be 5b dc c5 bd 99 2a 17 be
       -0.011439154 -0.15173803 -0.0966117 -0.14762343
0001f0 a6 1f 1a 3e 94 d4 e6 3d 96 e2 3c 3e 04 0b fb 3c
       0.15051135 0.11271015 0.1844581 0.030644901
000200 2c 56 41 bd 3a 16 51 be 9b 50 58 be 9e e8 ae be
       -0.04720132 -0.20418635 -0.21124499 -0.34161848
000210 7e 4a ef bc 53 1c d1 be b3 cf 88 be ba 47 48 3d
       -0.029210325 -0.40841922 -0.26720962 0.04889653
000220 b6 85 57 bd 87 06 c1 3c 9c b9 d4 3d 0b 5c 89 be
       -0.05261775 0.023562683 0.10386965 -0.26828036
000230 a5 cc a0 3d 68 51 b9 bd d9 59 27 be 0c b9 34 bd
       0.07851533 -0.0904873 -0.16342868 -0.044121787
000240 05 44 9a bd 0b 53 6a bd ef 2a 2c be c5 8b c3 bc
       -0.07532505 -0.057208102 -0.16813253 -0.023870358
000250 f5 b4 22 3d 0e e6 10 be f0 38 c3 3c d5 c8 2e 3d
       0.039723355 -0.14150259 0.02383086 0.042671997
000260 16 ef 02 3c 5f a4 68 bd dc 0b 45 bc c9 c3 71 3c
       0.007991573 -0.05679738 -0.012026753 0.0147561515
000270 59 56 cb 3c 27 b5 5d bd 0d 4f c7 bd f6 d7 05 bd
       0.024821447 -0.05412784 -0.097318746 -0.03267666
000280 2a e9 d9 bd 03 a1 10 be b2 a1 29 bb bd 3c 0c be
       -0.10640176 -0.14123921 -0.0025883731 -0.13695045
000290 3c 7a 36 3c 8a 04 67 3d 12 da c5 bc 73 6b 7f bd
       0.011137541 0.056400813 -0.024151836 -0.06235833
0002a0 93 c3 c9 bc a3 3a d3 bc ec 33 a7 bd 71 a7 91 bc
       -0.02462939 -0.025784796 -0.081642 -0.017780038
0002b0 c7 5e 2a 3c 2e ba b5 3d 3f 5e 66 bd bc a9 db 3d
       0.010398573 0.088734016 -0.056242224 0.10725734
0002c0 eb ec bb 3d 74 b6 06 be 7f 80 d5 3c 0e 0f 2c 3e
       0.09176048 -0.13155538 0.026062248 0.16802618
0002d0 66 f6 a1 3d 20 af 61 bd 7f 62 41 bc e3 fe 8a be
       0.07908325 -0.055098653 -0.011803268 -0.27147588
0002e0 4c ec ff bd ef 18 29 be 4b bf 05 bd f3 ff 87 be
       -0.12496242 -0.16513418 -0.032653134 -0.2656246
0002f0 45 10 b4 be f6 ed 80 3d c8 70 52 bc 0f 89 04 be
       -0.35168663 0.062953874 -0.012844272 -0.12942909
000300 89 e0 af 3c 07 5d 1a be fc 98 12 3d 61 aa ca 3d
       0.021469371 -0.1507455 0.03579043 0.098957784
000310 5b a4 c1 bb 34 47 2c 3d 7b 4d e0 3c 8c 54 ef bd
       -0.0059094853 0.042060092 0.027380696 -0.11686048
000320 38 8e 50 3c 7d dd 0f be 9d 16 0f 3b 7d c9 47 3d
       0.01272922 -0.14049335 0.0021833547 0.04877614
000330 a3 cc 32 be 64 f5 c8 bd a4 6a be bc 11 04 1a bc
       -0.17460875 -0.098124295 -0.02324421 -0.009400384
000340 3e 22 34 bc b8 b9 8b bd e7 79 f6 3c c7 c6 a1 bc
       -0.010994492 -0.068225324 0.030087424 -0.019748105
000350 ca 51 a1 bd 76 23 97 3d 94 1b 9a bd cf 38 9e bc
       -0.07876928 0.073798105 -0.07524791 -0.019314198
000360 e9 35 b3 3d 3c 66 3d 3d 32 5e 58 bc 07 39 e0 3d
       0.08750517 0.046240076 -0.013206052 0.10948377
000370 35 88 bc bd 1e e9 18 3e cc f7 43 3d 96 e5 b7 bd
       -0.09205667 0.14932677 0.04784374 -0.08979337
000380 36 bb 0e bd 0a 1d 7a 3d c4 82 80 bb fa 0b 84 bd
       -0.034846507 0.06106285 -0.0039218385 -0.06447597
000390 8e e8 c9 3b 4e fa 84 bd 68 8e e0 bd 47 53 7e bc
       0.006161756 -0.06493054 -0.10964662 -0.015522785
0003a0 b5 9f 81 3e fe ff 9f 3e 9b d1 4c 3d 81 ca 0d 3d
       0.2531716 0.31249994 0.050004583 0.03461695
0003b0 03 66 aa bd 01 78 48 3d d2 ce 29 be 0e c5 78 bb
       -0.083202384 0.04894257 -0.16582802 -0.003795925
0003c0 e0 c6 a5 be c2 d8 cb bd fe c6 07 3d 99 fb d9 bc
       -0.32378292 -0.09953453 0.033148758 -0.026609229
0003d0 88 d1 cb bd c1 10 c4 3d 11 2f 92 bd a3 9f 14 3b
       -0.09952074 0.09573508 -0.071378835 0.0022678159
0003e0 e1 2c 8e 3d d5 bd 77 be 06 1b 7d bc b5 73 7a 3d
       0.06942154 -0.24193509 -0.015448337 0.061145503
0003f0 30 c1 da 3b 06 f4 55 3e 0e 44 04 3d 27 1e c3 3d
       0.006675862 0.20893869 0.032291465 0.095272355

layers.3.bias f4 [64]
000000 e7 05 d8 bc 60 8c 69 bd 81 24 79 bd c2 9c 54 bc
       -0.026370002 -0.057018638 -0.06082583 -0.012976827
000010 74 86 1d 3c 42 4f dc bd 06 67 67 3c 65 2d c6 bd
       0.009614576 -0.10757305 0.014123684 -0.09676627
000020 bb cb 98 bc 2b 05 7f bd c2 00 ba bd 2d 7d 14 be
       -0.018651834 -0.062260788 -0.09082176 -0.14500876
000030 bd 3a e4 bd 00 9e 2d 3c 82 a6 29 bc 58 18 80 3c
       -0.11144016 0.010596752 -0.01035464 0.015636608
000040 ac c9 ba bd 84 ed dd 3d db 54 a2 bd e0 9f 33 bd
       -0.09120497 0.10836318 -0.07926341 -0.04385364
000050 58 ce 77 bc dd d3 22 bc da 93 b4 bc 42 9e a5 3d
       -0.01512488 -0.009938207 -0.022043157 0.08086826
000060 5a 92 cd bc 55 94 db bc 07 2f 4e bd c7 e3 0e 3d
       -0.0250942 -0.026804129 -0.050337818 0.034885194
000070 13 93 ef bd 9a 6a aa bd 13 ba 6f 3c f4 95 79 bb
       -0.11697974 -0.08321114 0.014631766 -0.0038083764
000080 23 c7 bb bc de 73 c5 bd 7d 85 38 3d d6 b0 18 3d
       -0.022922104 -0.096412405 0.04504918 0.03727802
000090 e0 85 4c bd ce 7c 88 bc dc 5d 17 bd 9e 27 7b bd
       -0.04993236 -0.016661074 -0.036954746 -0.06131708
0000a0 d3 79 66 bd 77 fd 62 bd 78 ab cc 3c aa 1a 07 be
       -0.056268524 -0.055417504 0.024984106 -0.13193765
0000b0 0e aa 3c bd 97 b4 a3 bd 6e 54 87 3c 32 0a 4d bd
       -0.046060614 -0.07993429 0.016519751 -0.05005855
0000c0 17 17 bb bc 0a 7b 9a bd 49 a7 30 3d 8b d5 c2 bd
       -0.022838159 -0.07542999 0.043128286 -0.09513386
0000d0 56 49 f0 bc e1 4d 9c bd ba 38 0b be 15 2e 01 be
       -0.029331844 -0.07632042 -0.13595858 -0.12615235
0000e0 64 15 63 bd cc b3 bb bd e5 7c 14 bd fd ad 43 bd
       -0.05544032 -0.09165153 -0.03625192 -0.04777335
0000f0 a1 e5 30 bd 95 b5 76 3d 0d e0 96 bd 63 8a 1c 3c
       -0.04318774 0.060231764 -0.07366953 0.009554478

layers.7.weight f4 [128, 1600]
000000 45 c3 6c 3c 4d 1b bc 3b da cf bf 3b 58 5d f7 bc
       0.014450853 0.005740559 0.0058536353 -0.030195877
000010 e6 77 3c 3c b9 c4 07 3c 0d 8a a2 bc 5b 81 91 3c
       0.011503195 0.008286648 -0.019841218 0.017761877
000020 64 26 1d bc 95 30 91 3c 41 73 c5 bb 9f 5f 9a 3c
       -0.009591673 0.017723361 -0.006025702 0.018844424
000030 8e 7e 74 bc df 64 19 bc bb 0e 6c 3b d7 54 93 bc
       -0.014922751 -0.009362428 0.0036019522 -0.01798479
000040 7a fb 09 3b e6 ca b6 3a 67 6f b4 bc 34 af ea 3b
       0.0021054433 0.0013945966 -0.022025777 0.007161999
000050 17 d6 68 3c b6 a1 0d 3c 2d 5f 98 3c 32 38 29 bc
       0.014211199 0.008644512 0.01860007 -0.010328339
000060 1a c7 a0 3b a7 d2 b4 bc 66 f2 7c bc ad 58 3f bc
       0.0049065473 -0.022073103 -0.015438652 -0.011678857
000070 9d 76 62 3b 84 82 ce bc ef 3b 9e bc 9e c3 16 3c
       0.0034555562 -0.02520872 -0.019315688 0.009201912
000080 7a 12 b4 bb 4b 19 f3 bb 39 63 fa bb ce 7b 9c bc
       -0.0054953666 -0.0074187866 -0.007641223 -0.019102003
000090 b4 25 92 bc 26 aa f0 bb 87 f3 73 3c 9a de 6f bc
       -0.017840244 -0.007344502 0.014889604 -0.014640475
0000a0 b7 00 50 3c be c7 2b bc ef 5f 48 bb 13 5d 23 3b
       0.012695483 -0.010484634 -0.003057476 0.0024927303
0000b0 3e da bf bb 3a 89 37 3c ae 7b cc 3b 3d 64 8c bb
       -0.005854874 0.011202151 0.0062403297 -0.0042844103
0000c0 60 e3 05 bc 3d 5e 97 bc fe c7 6f bc f7 a1 a6 bc
       -0.008171886 -0.018477554 -0.014635084 -0.020340903
0000d0 c2 0b bc bc 0e 92 30 3c 32 cb 9a 3c 67 4d 46 bb
       -0.022954825 0.01077701 0.01889572 -0.0030258538
0000e0 17 70 c8 3a d1 b4 86 bc 85 cd c5 bc 87 8e 52 3c
       0.0015292194 -0.016443642 -0.02414585 0.012851364
0000f0 03 68 19 bc fd 78 22 bb 15 7e de bc 27 c5 57 bc
       -0.009363177 -0.0024791353 -0.02715973 -0.013169563
000100 48 af ae bc 11 39 ad bb a2 4d fa bc fb 97 4b bb
       -0.021323815 -0.005286344 -0.030554596 -0.003106593
000110 8a f2 2c 3c 79 d8 87 bc fb 56 97 bc a5 ed bd 3b
       0.010555873 -0.016582714 -0.018474093 0.0057961517
000120 7a c4 0c 3c 4f cd b6 ba 53 f7 e4 bc 16 b8 92 bc
       0.008591766 -0.0013946685 -0.027949965 -0.017910045
000130 58 39 04 bb 8b e2 5c ba a5 27 8a bc 11 89 84 bc
       -0.002017578 -0.00084260915 -0.016864607 -0.01617864
000140 14 e7 b1 bc dc 09 88 ba 65 c9 e1 3a 67 2f ec bc
       -0.021716632 -0.0010378915 0.0017226158 -0.028831197
000150 46 98 8f 3c 5a db b4 bc 40 3c 46 3c c5 45 f8 bb
       0.017528664 -0.022077251 0.012099326 -0.0075766766
000160 f3 9f 20 3b ef 4b 65 bc cd 92 9a bc d8 58 e6 bc
       0.00245094 -0.013995155 -0.018868828 -0.028118536
000170 59 1a bc bc f6 44 d0 bc 5d d6 a8 3a dd 13 bf bb
       -0.022961782 -0.025423508 0.0012881268 -0.0058312253
000180 74 78 e3 3b c0 66 f0 bc 41 ec ac bc f9 70 d8 3a
       0.0069418494 -0.02934587 -0.021108748 0.0016513161
000190 f0 5f e0 3b 85 2e 17 3c d1 67 7e 3b 25 99 bc bb
       0.006847374 0.0092274 0.0038819204 -0.005755561
0001a0 aa 5f f0 3b 49 7b 26 bc 64 40 84 bc c0 ba 55 3c
       0.007335623 -0.010161229 -0.016143985 0.013045013
0001b0 e8 77 bf bc f9 af 0f 3b 9c 64 bd bc 59 89 83 bc
       -0.023372605 0.0021924956 -0.023119263 -0.016056703
0001c0 40 6e a4 bc 31 9a f1 bc e6 df 6f bb 20 5f fb bc
       -0.020072103 -0.02949247 -0.003660196 -0.030685008
0001d0 c6 cd e3 bc 3c 8f a0 3b 24 a7 1a 3c c9 f8 e9 bb
       -0.027808081 0.0048998874 0.0094392635 -0.007140253
0001e0 9f 87 e7 3b ee 51 4b 3c 3d 57 fb bc dc dc 78 3c
       0.007065728 0.01240967 -0.030681247 0.015189376
0001f0 da 03 96 b9 bf 9d 18 3c 6e f8 5a bc 49 96 0c bc
       -0.000286131 0.009314953 -0.013364894 -0.008580753
000200 1d 92 07 3b 4a 6b dc 3b ce 40 3b 3c 76 b0 c2 bc
       0.0020686456 0.006726657 0.011429025 -0.023765784
000210 17 e5 59 bc d8 60 83 bc 3c c0 8d 3c 39 dd b5 bb
       -0.013299248 -0.01603739 0.017303579 -0.0055500534
000220 f2 5a 84 bc 64 9a 98 bc a7 42 b5 bc 3b 13 87 bb
       -0.016156647 -0.018628307 -0.022126509 -0.0041221655
000230 f0 3f fa bb d8 25 c8 bc 58 dc 9a bc c1 cd 12 3c
       -0.0076370165 -0.024432108 -0.018903896 0.008960188
000240 c6 9c 89 bc 6d fc 31 3b 2a 3a f1 bc 51 06 81 bc
       -0.016798388 0.0027158514 -0.02944668 -0.015750082
000250 75 ba 44 3c 02 bd 1d bc f7 66 c6 3c 32 5b 15 bc
       0.012007345 -0.0096275825 0.02421902 -0.009115981
000260 9f 19 79 bc 06 30 8e 3c ac 20 8e bc d0 5b c1 3c
       -0.015203862 0.017356884 -0.017349564 0.02360335
000270 07 9f b5 b8 9a 21 6f ba e2 4b 7c bc 02 fc 8a 39
       -8.660374e-05 -0.00091221335 -0.015398951 0.00026509172
000280 f4 c4 dc bc f0 c7 51 bc ff 16 a4 3c 92 34 e7 bc
       -0.026949383 -0.0128040165 0.020030497 -0.02822331
000290 97 b5 da 3a 83 4c 6f bc 33 3c f9 3b 2b 9f ad bc
       0.0016686198 -0.014605644 0.0076060533 -0.021194061
0002a0 9e 7a 27 bc 4c 8c aa bc 30 45 23 3c 7a 97 8f bb
       -0.010222105 -0.020818852 0.009965226 -0.004382071
0002b0 e8 36 e1 3b 51 0d e0 ba 2d 69 2f bc 48 c5 69 3c
       0.0068730004 -0.0017093812 -0.010706228 0.014268227
0002c0 2f c4 f5 3b c5 cf 40 3b df 1a 58 3c 55 70 c5 bc
       0.0075001935 0.0029420715 0.01319 -0.024101416
0002d0 0f 5f 70 3c a6 07 14 bb 17 0d 3f 3c 14 20 36 bb
       0.014671101 -0.0022587567 0.011660836 -0.0027790116
0002e0 ec 5d 9c bb 6e bd 81 3c c2 05 97 3c ca 7d f4 bc
       -0.0047719385 0.015837397 0.018435363 -0.029845137
0002f0 68 30 3e 3c a5 60 bb 3c 67 79 82 3a 42 11 19 3c
       0.011608221 0.022873232 0.0009954394 0.0093424935
000300 28 71 23 3c 7d 6c e9 bc 9a 40 ba bc f6 e9 85 3c
       0.009975709 -0.028494114 -0.022735883 0.016346913
000310 c8 86 bd bc b5 c1 77 3c 87 a6 70 bc fd 7a 33 3c
       -0.023135558 0.015121867 -0.014688141 0.010954616
000320 c0 ed 11 bb 2c c0 96 3b 16 3a 11 3b 0d 6e 91 3c
       -0.0022266954 0.0046005454 0.0022159866 0.017752672
000330 64 00 c1 bb 4d 91 d3 bb 13 f5 61 3c d0 b8 b5 bc
       -0.005889939 -0.00645653 0.01379134 -0.022182852
000340 5c 06 84 3c 41 a2 51 3c 3f af 5d bb c0 27 e4 bc
       0.016116314 0.012795032 -0.0033826379 -0.027850986
000350 87 91 41 bc 37 fe b9 3b ee 57 c2 bc 97 71 84 3c
       -0.011814482 0.0056760567 -0.023723569 0.016167445
000360 14 36 f1 3b f0 fd ed bc c8 3d 94 bc d2 28 e2 3b
       0.007361183 -0.02905175 -0.018095866 0.006901839
000370 0d 17 49 bc b5 65 82 bc 80 53 b1 bb 18 43 e2 39
       -0.012273562 -0.015917638 -0.0054115653 0.00043156068
000380 3e be e0 bb a7 be 5e 3b bb 4d 8f bc ec c0 d0 bc
       -0.006858616 0.003398815 -0.01749312 -0.025482617
000390 50 9d c9 bc 0c d7 6d 3c 0b 99 96 3a a0 a1 7d 3c
       -0.024611145 0.014516603 0.0011489702 0.015480429
0003a0 c1 86 ba 3b 26 66 8c bc 56 6b 86 3c e6 83 9b bc
       0.0056923334 -0.017138552 0.016408604 -0.018983793
0003b0 28 8e bc 3b de 0d 0f 3c 58 11 93 bc 46 22 47 3b
       0.005754251 0.008731334 -0.017952606 0.0030385419
0003c0 05 f0 a6 bc a2 f3 72 bb 61 dd e8 bc b5 ef 5b 3b
       -0.020378122 -0.0037071486 -0.028425874 0.0033559625
0003d0 da 9f 8d bc 0d 51 94 bb 36 48 a7 bc 5a c9 6c 3c
       -0.017288137 -0.0045262636 -0.020420175 0.014452303
0003e0 8c 73 10 bb 32 a9 c2 bc d4 30 46 bc d2 b4 fc 3b
       -0.0022041528 -0.02376232 -0.0120966025 0.007711985
0003f0 61 64 4d bb aa 51 8b bb 40 ee 96 3b d6 5c 83 bc
       -0.0031340348 -0.0042516785 0.0046060383 -0.016035479

layers.7.bias f4 [128]
000000 e4 42 5a bc a9 88 4e bc 5f a6 0d 3c 30 8d bb bd
       -0.013321612 -0.0126058245 0.008645623 -0.09157789
000010 9f 0c 82 3d c8 e8 16 bd 0b d9 da 3c ba 18 6b bc
       0.063500635 -0.03684309 0.026714822 -0.014349157
000020 73 67 c6 3b 11 d9 1a 3b f4 4e 9c bc 60 f3 fa bc
       0.0060548126 0.0023627917 -0.019080617 -0.030633628
000030 4e 91 13 3d 26 fc 1b bd 3f 4d 87 3d 99 e6 e5 bc
       0.036027245 -0.038082264 0.066065304 -0.02806406
000040 bc 64 e2 bc 0c 14 0c 3c f9 a2 36 3c 44 39 e2 bc
       -0.027635925 0.008549701 0.011147254 -0.027615197
000050 be f8 10 3c af c7 80 3c 86 9f 77 3b f5 81 74 bc
       0.008848367 0.015720217 0.0037784292 -0.014923562
000060 01 8d 6d bb 9b ea 9f bc 91 51 26 bd d5 ff 21 3d
       -0.0036247375 -0.019521048 -0.04060513 0.03955062
000070 fa 45 2d bd 4f 0d 2a 3b 7e 4d 90 3c 5b c7 77 bc
       -0.042303063 0.0025947874 0.017615076 -0.015123214
000080 48 5b b2 bb c8 29 c2 bc 39 ad 3f bd 44 15 48 bd
       -0.0054430105 -0.023701563 -0.046796057 -0.048848405
000090 89 64 19 3c 7f 50 90 bd c2 bb 70 bc 03 0c 88 bd
       0.009362348 -0.070466034 -0.014693202 -0.06642916
0000a0 ed 4c 52 3d 5c 24 05 3d b8 53 49 3c 08 8f d5 bc
       0.051342893 0.032505378 0.0122880265 -0.02606918
0000b0 e4 b8 1e bd c9 22 56 3b 58 b4 aa bc 17 7c a1 3c
       -0.038750544 0.0032674542 -0.020837948 0.019712491
0000c0 92 df 1b 3d d4 e1 a8 bb 02 e0 fa bc 62 35 d0 bc
       0.03805501 -0.005153874 -0.030624393 -0.02541608
0000d0 d6 f6 3a bc 62 5b 3b 3c 5b f3 91 3c dd 10 e6 3c
       -0.011411389 0.011435362 0.017816236 0.028084213
0000e0 06 e0 21 3c 17 4c 24 bc bc e9 ae bc 4b 9c 96 3c
       0.0098800715 -0.010027907 -0.021351688 0.018385073
0000f0 cb bf 16 3d 9e 96 26 bc 77 6c 1f 3c 20 8f 0e bc
       0.036804 -0.010167746 0.00973045 -0.008701116
000100 9f 74 be bc f7 86 be bc 47 e7 8e bd 59 0f 50 bd
       -0.023248969 -0.023257716 -0.069777064 -0.050795887
000110 61 bf 2b 3c 45 7a 16 bd f9 13 15 3d 1d bc 6e bc
       0.01048264 -0.0367377 0.036396 -0.014571217
000120 b6 23 92 bc 2e 98 8e ba 6e 13 dc 3b 3e 91 35 bd
       -0.017839294 -0.0010879093 0.0067161834 -0.044327967
000130 43 52 10 3d 21 57 7a bc b6 f9 7d 3c be 33 ad 3c
       0.0352347 -0.015279562 0.01550143 0.021142837
000140 7b e9 73 bd 68 23 8f 3c 79 da 3e bd 44 e8 57 3c
       -0.059548836 0.017472938 -0.04659507 0.013177935
000150 ef 43 3b bc 4a 47 ad bc 77 7b 65 bd b8 8e 07 3d
       -0.011429771 -0.021152157 -0.05602595 0.03309509
000160 a9 8d 48 bd cd ca 0e 3d b2 86 07 bb 9c a2 77 3b
       -0.048963223 0.034861375 -0.002067965 0.0037786132
000170 8f e4 ba 3c 50 2d 9c 3c 82 fb e6 bc 59 32 ad bc
       0.022814063 0.019064575 -0.0281961 -0.021142172
000180 30 db 47 3b 9d b3 3d 3c a8 78 2d bc 7e c4 79 3c
       0.0030495636 0.011578468 -0.010587849 0.015244601
000190 f4 9b 73 3d 87 4e f4 bc 5f 65 a0 3d eb c0 3f bd
       0.0594749 -0.029822601 0.07831835 -0.04681484
0001a0 cf c1 9e 3b 8b 12 80 bc 28 86 a6 bc 04 70 1f bd
       0.004844881 -0.015633842 -0.020327643 -0.038925186
0001b0 35 37 ec 3b c3 21 89 39 e6 ef 76 3c 96 50 ba bc
       0.0072087296 0.0002615583 0.015071845 -0.022743504
0001c0 93 bc 5d bd 4c 8d 9e 3c 67 65 96 bc c7 92 88 bc
       -0.054134917 0.019354485 -0.0183589 -0.016671551
0001d0 95 e7 21 3a 44 71 28 3c 15 64 8f 3c eb 41 a5 bc
       0.0006176171 0.010280911 0.017503778 -0.020173034
0001e0 e9 19 b8 bc 5e 4c ec ba 9c 27 c7 bb c7 b6 65 bc
       -0.022473292 -0.001802813 -0.00607772 -0.014020628
0001f0 bc 85 78 bc 7b 74 13 3d 5d e3 95 bc 9e e5 47 3b
       -0.0151686035 0.035999756 -0.018296892 0.0030501853

layers.9.weight f4 [10, 128]
000000 3b a6 36 bd df ed 1c 3d e5 df 44 3d d3 23 1c bd
       -0.044592123 0.03831279 0.048065085 -0.038120102
000010 32 82 3c be d0 04 1c 3d a0 2f 28 be 47 2b fe 3c
       -0.1840904 0.038090527 -0.16424417 0.031026496
000020 46 bf bd bd 0f c6 0a bc 6d 53 05 bd aa af 01 bd
       -0.09264998 -0.008470072 -0.032550264 -0.031661667
000030 40 d7 48 3d 52 17 60 bd d5 17 7b bd d5 cd bb 3d
       0.049033403 -0.05470974 -0.061302025 0.09170119
000040 30 56 38 3d 5e ca b6 3d e6 76 e3 3c 98 c1 a2 3d
       0.04500407 0.08925317 0.027766656 0.07947081
000050 b6 d6 aa 3d ac e4 18 be 45 77 53 bc d6 fb 4b 3c
       0.08341734 -0.14930981 -0.012906854 0.012450179
000060 61 2f bf 3c ef b2 2a bc de 3e a5 bd 8e c1 f7 bd
       0.023338022 -0.010418638 -0.080686316 -0.120974645
000070 c8 05 c0 bd c8 7f 12 bd 0f b0 17 3d e2 64 fc 3c
       -0.09376103 -0.035766393 0.037033137 0.030809823
000080 5a 43 b2 bd bf 8c 1b 3d 5f 7a c7 3d 5e b1 84 3c
       -0.087042525 0.037976023 0.09740137 0.016197857
000090 07 d2 3f 3d 6c 99 9d bd 29 4b 46 be 4c bb b5 bb
       0.046831157 -0.076952785 -0.19364609 -0.005546009
0000a0 ae 20 a6 be 2b 9a e1 3d f7 d8 e5 bc 4a a1 d0 3c
       -0.32446808 0.11015733 -0.028057558 0.025467534
0000b0 ae fc 84 3c 28 d3 31 be ec e8 53 3d ee 81 a4 bd
       0.016233768 -0.17365706 0.051735803 -0.080325946
0000c0 f2 eb c2 bd e0 0d 46 be 55 3e ca bd 6f ee 82 b9
       -0.09517659 -0.1934123 -0.0987517 -0.0002497318
0000d0 65 14 a2 3d 24 69 ae 3d a4 e9 44 3d d6 b1 4f 3d
       0.07914046 0.08516148 0.04807438 0.050706707
0000e0 23 59 97 bd c3 e3 3e 3d 40 7a 8d bd 0f 64 eb 3d
       -0.07390048 0.04660393 -0.06908083 0.11493694
0000f0 0d 6c 61 be 26 32 1d bd 91 66 65 bd 40 ed 04 be
       -0.22013874 -0.038377903 -0.056006018 -0.12981129
000100 e1 c1 ba 3d 8b 37 3f bc 0f 38 8e 3d ec c4 f8 bd
       0.09119011 -0.011670957 0.06944286 -0.12146935
000110 56 71 c6 bd be e2 9d bb 38 2b 81 be 19 9c 1c 3d
       -0.09689586 -0.0048182895 -0.25228286 0.038234804
000120 fe 9a 54 3c 7c a7 19 bd 42 aa 9b 3d fd 9d bf 3b
       0.012976406 -0.03751324 0.076008335 0.005847691
000130 80 c2 ed bd 44 09 21 be 64 17 93 bd 41 70 c4 3c
       -0.116093636 -0.15726191 -0.07182196 0.023979308
000140 ed 93 0c 3e 18 c6 46 bd 52 ce fd 3b a3 70 9a bd
       0.13728304 -0.04852876 0.0077455426 -0.07541015
000150 60 93 6c bd 8d ce 1c bd a7 4e b0 3c 09 1c d7 bd
       -0.057757735 -0.03828292 0.02152188 -0.10503394
000160 65 5d 7c 3d 1a aa 0c be f0 c8 83 3c e4 8a 7b bd
       0.061612505 -0.13736764 0.016087025 -0.061411753
000170 a8 f4 ca 3d 0c b7 0f 3e 5f e7 b9 3d f1 01 8c bd
       0.09909946 0.1403467 0.09077334 -0.06836308
000180 f6 7e ae 3d cf ac 63 3c 85 a3 20 3e 89 fc 6e bd
       0.085203096 0.013896181 0.15687378 -0.058346305
000190 3a a2 8d 3d d3 af af bc cb 96 07 bd 4f ed 7d 3d
       0.06915708 -0.021446144 -0.03310279 0.061993893
0001a0 63 3a e7 3b 0b 64 df bb 25 36 39 3c f4 65 25 be
       0.007056521 -0.006817346 0.011304413 -0.16152173
0001b0 3b d3 25 3e 41 8e 1c bc 52 5d 8a bd dd 13 80 3d
       0.1619386 -0.0095554 -0.06756081 0.062537886
0001c0 02 7a 8c bd b0 b2 54 bd 08 ba 86 3d 02 2f 36 3d
       -0.06859209 -0.051928222 0.065784514 0.044478424
0001d0 d0 6c 6d bd a0 ff 29 bd 6d 4a 2b 3e 74 ac b8 bd
       -0.0579651 -0.04150355 0.1672761 -0.09017268
0001e0 ab 3c 63 3b b5 48 86 3d f3 06 3c bd bb 62 d7 3c
       0.0034673612 0.065568365 -0.045905065 0.026292196
0001f0 93 cf 09 be 1c f7 ed 3d 64 96 a7 bd ab da c1 3d
       -0.1345809 0.11619398 -0.081829816 0.09465536
000200 f3 9d 31 bb 8c e8 1d 3d 33 7c a1 bc 72 97 94 bd
       -0.0027102202 0.038551852 -0.019712543 -0.072554484
000210 35 61 b7 3d c6 80 74 bb 5c 91 c7 3c d1 48 30 b9
       0.08954088 -0.00373082 0.024361305 -0.00016811794
000220 34 93 2a 3e cf df 39 bd bb 5c ab 3a ea d5 1d 3e
       0.16657716 -0.045379456 0.00130739 0.15413633
000230 43 ec 41 3e 22 46 8d bb fb af f5 3d d7 5b a0 bd
       0.18937783 -0.004311339 0.11996456 -0.07830017
000240 a5 7b 39 be 40 ef 83 be 40 9f bb bd c2 15 36 bd
       -0.18113573 -0.2576847 -0.09161234 -0.044454344
000250 fa 44 a7 bc 36 5b 67 bd 78 46 1a be e0 f6 64 3d
       -0.020418633 -0.05648347 -0.15065944 0.0558995
000260 1b d2 32 3d 01 4b 6f 3e 04 aa 08 bd 84 f6 c5 bc
       0.043657403 0.23368455 -0.033365265 -0.0241654
000270 b6 e2 25 be 86 36 07 3d b3 27 8e bd 26 13 d7 bd
       -0.16199765 0.033010982 -0.06941166 -0.10501699
000280 fd 18 08 3d c2 ac 68 bd 06 b2 0c be 0b 9b a1 bb
       0.033226956 -0.05680538 -0.13739786 -0.0049318126
000290 4c 77 4e 3d 8e ca cd 3d 08 2b 2e bd e0 83 42 bd
       0.05040674 0.100484 -0.042521507 -0.047489047
0002a0 40 1e ab 3d 7f 60 e2 3d 5c ed 39 3d 86 b9 9c bd
       0.08355379 0.110535614 0.04539238 -0.07652573
0002b0 4f 6a 0e be 8c 43 4d 3d 99 62 6f 3c ef c7 de bd
       -0.13907741 0.050113246 0.01461091 -0.10877978
0002c0 2c 11 0f 3c cf e0 74 bd b2 db 4f be 87 3f aa 3c
       0.008732121 -0.059784707 -0.20298651 0.020782245
0002d0 af 33 03 bd 2c 54 6f bc 8d 8c 47 3d ad ad 59 bd
       -0.03203171 -0.0146074705 0.048718024 -0.053144146
0002e0 3a af ad bc be 91 92 bd 0e 4e 1f bd e7 a4 db bd
       -0.021201719 -0.07156704 -0.038892798 -0.10724812
0002f0 4e a7 a3 3d 96 2d bd bd ec d3 c7 3d d6 f0 28 3c
       0.07990895 -0.092372105 0.09757218 0.010311326
000300 41 b9 55 be 36 98 07 bd e4 f7 b3 3d 78 47 1f 3d
       -0.2087145 -0.033104144 0.08787516 0.038886517
000310 ab 19 0c be b5 cf f4 3c 89 4b a2 3d 96 56 42 bd
       -0.13681667 0.029884199 0.079245634 -0.047445856
000320 17 be 7a 3d dc 47 9e bd 5d 98 12 3d 1b e7 59 be
       0.06121644 -0.0772855 0.035789836 -0.21279566
000330 e7 d3 54 3b 2d 1f 6e bd f6 80 a7 bd 96 c9 25 3d
       0.0032474936 -0.0581352 -0.08178894 0.04047545
000340 01 58 2a bd 86 bc a9 3c 29 96 43 3d b4 22 7b 3d
       -0.041587833 0.020719778 0.047750626 0.061312392
000350 ad 6a 3f be 7b a1 8b 3d 2d 2c 26 be da 1a 9c 3d
       -0.18693037 0.06817909 -0.16227789 0.07622309
000360 2e 9b 7f bd 9a a0 c6 3d 6d 94 2f be 2b bb 6c bb
       -0.06240385 0.09698601 -0.17146464 -0.0036122303
000370 42 f7 2d be fe 3d 76 3d 68 9e 2c bd 33 61 1a 3c
       -0.16988853 0.060117714 -0.042143255 0.009422588
000380 d3 c2 8d 3d 5a 7c b6 bd ea b8 b1 bd 84 dd 3b bd
       0.069219254 -0.08910437 -0.08677848 -0.04586555
000390 5a 58 d0 3d a4 f8 0d 3c 6a 71 8b 3d d7 f3 e2 3b
       0.10173102 0.008665238 0.068087414 0.0069260406
0003a0 a7 fb 2d bd 11 a2 83 bd 6d 22 0f be 3d 7e cd bd
       -0.042476323 -0.06427396 -0.13977976 -0.10033844
0003b0 07 0c a3 bb 20 d7 64 bc b7 5b 57 bb 6e 3e f3 bb
       -0.004975799 -0.013967305 -0.0032861063 -0.0074232137
0003c0 47 fc 35 be a2 a9 cb 3d a8 fc 58 bc 20 88 a8 3d
       -0.17772017 0.09944464 -0.013243832 0.08229089
0003d0 22 d8 97 bc 13 4d 90 bd 50 2a 20 3e 7f 1e 85 3d
       -0.018535677 -0.07045951 0.15641141 0.06499957
0003e0 e8 05 d1 bd e9 00 83 3d ad d3 a4 3d 3f 70 12 be
       -0.10206205 0.06396658 0.080481865 -0.14300631
0003f0 b7 81 63 3d 53 b0 17 be 5d 09 40 bb eb d7 ae 3d
       0.055543628 -0.14813356 -0.0029302456 0.08537277

layers.9.bias f4 [10]
000000 81 3e 98 3c 80 78 91 3c d0 5c 6f 3d da 86 87 bd
       0.018584492 0.017757654 0.058438122 -0.06617518
000010 3a 37 6a bd 33 2f af 3a 02 6e 09 be 6c 70 36 bd
       -0.057181574 0.0013365507 -0.13420871 -0.044540808
000020 ca 32 07 3d 21 ec ee bc
       0.03300742 -0.02916533
